models/path_tracking_state_feedback_quadratic.pth (torch, 333363 bytes, 10 tensors)

controller.net.0.weight f4 [8, 2]
000000 87 16 1e bf 4c d3 3f be f4 39 26 be 1a 62 99 3e
       -0.61753124 -0.18732947 -0.16233045 0.29957658
000010 64 04 2f bf c9 75 af 3e 6e 73 79 bf de 56 2e bf
       -0.68366075 0.3426955 -0.97441757 -0.681013
000020 03 69 c4 bc 40 54 2d bf 37 2d e6 3e 78 14 dc 3d
       -0.023975855 -0.6770668 0.4495637 0.107460916
000030 28 95 b0 3e bc 3b f3 3e 0f ec a5 bd e5 f7 4b 3f
       0.34488797 0.4750651 -0.08101665 0.7967513

controller.net.0.bias f4 [8]
000000 de 83 b5 be 78 b1 c6 3e 1c fa 9e be ef ec b2 3e
       -0.3545217 0.38807273 -0.31050193 0.3494639
000010 b1 0c 8b 3e 5d df 69 be e3 99 b5 be 45 2c 27 3e
       0.2715812 -0.22839113 -0.3546897 0.16325481

controller.net.2.weight f4 [8, 8]
000000 9a ab a1 3e a5 4b 1f 3e d8 98 45 bd 7e 13 00 bd
       0.31576234 0.155562 -0.048241466 -0.03126859
000010 58 c7 4d 3e 9f 9e 7b be fb b7 f0 3d fb 66 06 be
       0.20095575 -0.24572228 0.117538415 -0.13125221
000020 51 b5 1f 3e 53 a7 db 3d 28 c8 fe bc 7f 7b f3 3e
       0.1559651 0.10725274 -0.031101301 0.47555158
000030 99 a7 40 3f 4b 94 cb bd c2 eb 8c 3e 27 6b 18 bf
       0.75255734 -0.09940394 0.2752362 -0.595385
000040 dd 28 81 bd 0a c5 a6 be 1f ee ef 3c 94 7a cd 3d
       -0.06306622 -0.32572204 0.02928835 0.100331455
000050 e4 20 ee bd d1 db 31 3e 48 8f f9 bc f7 90 8f be
       -0.11627367 0.1736901 -0.03046383 -0.28040287
000060 8c 2f 64 3e a4 d5 c7 3d b4 4a f6 3d c9 f8 f9 3e
       0.22283763 0.097575456 0.12025967 0.4882262
000070 3c 52 bc 3e 5f e4 0f 3e aa b7 52 3e 57 25 6b be
       0.3678149 0.1405196 0.20577875 -0.22963463
000080 90 2d 8d be 3f 0c 32 be ae 50 41 bd 03 22 1f bd
       -0.27573824 -0.17387484 -0.047196083 -0.038850795
000090 d9 09 1d bb 63 79 4f 3e 0a 47 e8 3d 1e d8 85 be
       -0.0023962168 0.20261149 0.113416746 -0.26141447
0000a0 48 84 d9 bd c4 56 aa bd 77 57 5c 3e 0f 57 03 be
       -0.10620934 -0.083173305 0.2151774 -0.12826179
0000b0 ad 78 17 be be d5 68 bd 2f 2f b8 bd 91 47 b2 bd
       -0.14792128 -0.056844465 -0.089933746 -0.087050565
0000c0 96 3d 98 be 3c dc d9 3e ff 4f 7d 3e db 9e e7 be
       -0.29734486 0.42550838 0.24737547 -0.45238385
0000d0 67 05 3e bf c5 c5 74 3d 61 05 94 3e fb 3b 48 3e
       -0.74226993 0.05975892 0.28910354 0.1955413
0000e0 1e bc 08 be 99 6e 17 3e 2f 85 69 be 8a 40 21 bd
       -0.13353011 0.14788283 -0.22804712 -0.03936819
0000f0 9d 81 88 be 15 e6 a7 3e 48 27 43 3e 19 52 a7 be
       -0.26661387 0.32792726 0.19057953 -0.32679823

controller.net.2.bias f4 [8]
000000 29 54 56 be e8 c9 65 3e f9 59 3d 3d df 9c 26 3e
       -0.20930542 0.22440302 0.046228383 0.16270779
000010 90 16 94 be a0 d9 41 be da 03 a4 3e 12 07 8a be
       -0.28923464 -0.18930674 0.32034189 -0.2695852

controller.net.4.weight f4 [8, 8]
000000 84 e3 b4 bd 89 49 1b 3f c8 69 20 3e 1b 8c a2 3e
       -0.08832458 0.6065908 0.15665352 0.31747517
000010 4c e7 d1 3d a5 0c 21 3e 90 0c e1 be 2a d7 c5 bd
       0.102491945 0.1572748 -0.43954897 -0.0966018
000020 22 fc 82 3e e3 78 4e 3f 1c 35 0c 3e 47 e3 15 3e
       0.25582987 0.8065321 0.13692135 0.1463748
000030 65 75 9d be 42 ab b2 be a6 69 c7 be 3c e8 0a be
       -0.30753627 -0.34896284 -0.3894779 -0.13565153
000040 08 02 99 bd 60 6f 04 bf b6 ef b8 3e 12 4c a6 3d
       -0.074710906 -0.51732445 0.36120385 0.08119978
000050 94 65 07 bd 2b 6d d9 bd d5 bd 21 3f d5 1d e7 bc
       -0.033055857 -0.10616525 0.63180286 -0.028212467
000060 e1 3d ac be 95 06 ec 3d b6 4c ad 3e 37 7d 8f be
       -0.3364096 0.11524693 0.33847588 -0.2802522
000070 b6 61 9c bd fa 06 9d 3d dd 67 93 be 4c fb 9a be
       -0.076358244 0.07667346 -0.2879018 -0.3026985
000080 12 23 87 3e 3d 32 00 be e4 2f 53 3e 2f 76 01 3d
       0.26393944 -0.12519164 0.20623738 0.03160685
000090 65 aa b0 3d 06 49 71 be c4 a4 9a bd b6 d1 6e 3e
       0.0862625 -0.23563012 -0.07550958 0.23322186
0000a0 97 8d 17 3e d8 43 ee bd 7c 26 32 3d 0a 5f 83 3e
       0.14800106 -0.11634034 0.043493733 0.25658447
0000b0 d1 9b 9e be 0c 8e 68 3e 85 3c f6 bd a1 4d 93 bd
       -0.30978253 0.22710437 -0.12023262 -0.07192541
0000c0 ee 62 23 3e ac b9 a9 be af c5 5a bd 01 a7 99 3e
       0.15955707 -0.3314947 -0.053411182 0.30010226
0000d0 ec 4c 02 3e e4 de 05 be 39 ca ea bd a0 c1 8e 3e
       0.12724656 -0.13073307 -0.11464352 0.278821
0000e0 d5 8e f4 3d 9f 83 9d 3e 7f 4f 82 be 2d 9e 1d 3e
       0.119413055 0.3076448 -0.25451276 0.1539237
0000f0 4a 6f 81 3d 6a 6f 7c 3d 0a 18 4f 3e 0b 6a 48 3e
       0.06320055 0.06162969 0.20224014 0.19571702

controller.net.4.bias f4 [8]
000000 1d 06 81 3e da a4 41 3e b2 5c 8b 3e 22 e5 7b bd
       0.25199977 0.18910542 0.27219158 -0.061497815
000010 ca c3 9f be a0 20 a0 be 5e 12 84 be 02 40 51 be
       -0.31204063 -0.3127489 -0.25795263 -0.20434573

controller.net.6.weight f4 [1, 8]
000000 01 4e 1e 3f 7f 8e fe 3e 7c a2 09 bf a6 e4 89 be
       0.61837775 0.4971809 -0.53763556 -0.26932257
000010 08 35 b2 3e b5 c7 80 3e 7e 75 05 3e ab da 97 3e
       0.34806085 0.25152364 0.13033101 0.29659018

lower_limit f4 [2]
000000 00 00 40 c0 00 00 40 c0
       -3.0 -3.0

upper_limit f4 [2]
000000 00 00 40 40 00 00 40 40
       3.0 3.0

x_boundary f4 [40960, 2]
000000 00 00 40 c0 85 e7 a1 3f 00 00 40 c0 17 2b a3 3f
       -3.0 1.2648779 -3.0 1.2747525
000010 00 00 40 c0 a0 aa a0 3f 00 00 40 c0 8b f4 9d 3f
       -3.0 1.2552071 -3.0 1.2340254
000020 00 00 40 c0 2f e3 a0 3f 00 00 40 c0 45 ed a0 3f
       -3.0 1.2569331 -3.0 1.2572409
000030 00 00 40 c0 cf ac a2 3f 00 00 40 c0 96 d2 a0 3f
       -3.0 1.2708987 -3.0 1.2564266
000040 00 00 40 c0 bc 9b 16 3f 00 00 40 c0 ce 6f 9f 3f
       -3.0 0.5883138 -3.0 1.2455995
000050 00 00 40 c0 95 8d a3 3f 00 00 40 c0 a1 ee a1 3f
       -3.0 1.2777582 -3.0 1.2650949
000060 00 00 40 c0 1f 98 a3 3f 00 00 40 c0 14 b0 9f 3f
       -3.0 1.2780799 -3.0 1.247561
000070 00 00 40 c0 3c 73 a0 3f 00 00 40 c0 cc c0 a0 3f
       -3.0 1.2535167 -3.0 1.2558837
000080 00 00 40 c0 89 92 86 3f 00 00 40 c0 74 b6 95 3f
       -3.0 1.0513469 -3.0 1.1696305
000090 00 00 40 c0 80 1c a4 3f 00 00 40 c0 00 25 6b 3e
       -3.0 1.2821198 -3.0 0.22963333
0000a0 00 00 40 c0 fb 6b a0 3f 00 00 40 c0 6a f6 9d 3f
       -3.0 1.2532953 -3.0 1.2340825
0000b0 00 00 40 c0 70 0f a1 3f 00 00 40 c0 dc ba a0 3f
       -3.0 1.2582836 -3.0 1.2557025
0000c0 00 00 40 c0 02 42 9e 3f 00 00 40 c0 5e d7 a0 3f
       -3.0 1.2363894 -3.0 1.2565725
0000d0 00 00 40 c0 61 70 a2 3f 00 00 40 c0 c4 8e 9e 3f
       -3.0 1.2690545 -3.0 1.2387319
0000e0 00 00 40 c0 ec db a2 3f 00 00 40 c0 09 88 a0 3f
       -3.0 1.2723365 -3.0 1.2541515
0000f0 00 00 40 c0 b8 83 5b 3f 00 00 40 c0 ea 49 a0 3f
       -3.0 0.8574786 -3.0 1.2522557
000100 00 00 40 c0 d3 da a0 3f 00 00 40 c0 e8 69 9e 3f
       -3.0 1.256678 -3.0 1.237607
000110 00 00 40 c0 b7 56 a0 3f 00 00 40 c0 7a de a0 3f
       -3.0 1.2526463 -3.0 1.2567894
000120 00 00 40 c0 d0 e8 9f 3f 00 00 40 c0 58 ba 9d 3f
       -3.0 1.2492924 -3.0 1.2322493
000130 00 00 40 c0 f8 e8 a0 3f 00 00 40 c0 c9 d9 a0 3f
       -3.0 1.2571096 -3.0 1.2566463
000140 00 00 40 c0 50 30 a0 3f 00 00 40 c0 e8 b7 a2 3f
       -3.0 1.2514744 -3.0 1.2712374
000150 00 00 40 c0 09 4c a0 3f 00 00 40 c0 a4 b0 a0 3f
       -3.0 1.2523204 -3.0 1.2553906
000160 00 00 40 c0 3d 4b a1 3f 00 00 40 c0 14 f1 a0 3f
       -3.0 1.2601086 -3.0 1.2573571
000170 00 00 40 c0 22 6f 9e 3f 00 00 40 c0 b6 c1 9e 3f
       -3.0 1.2377665 -3.0 1.2402866
000180 00 00 40 c0 00 94 e1 3e 00 00 40 c0 8f 5e 9e 3f
       -3.0 0.44058228 -3.0 1.2372607
000190 00 00 40 c0 2c 41 a1 3f 00 00 40 c0 7b c6 a0 3f
       -3.0 1.2598014 -3.0 1.2560571
0001a0 00 00 40 c0 9d e8 a0 3f 00 00 40 c0 a2 d1 9f 3f
       -3.0 1.2570988 -3.0 1.248585
0001b0 00 00 40 c0 a4 cb a0 3f 00 00 40 c0 84 78 99 3f
       -3.0 1.2562146 -3.0 1.1989903
0001c0 00 00 40 c0 b0 19 9e 3f 00 00 40 c0 ae 38 a3 3f
       -3.0 1.2351589 -3.0 1.2751672
0001d0 00 00 40 c0 54 58 34 3f 00 00 40 c0 30 bd a0 3f
       -3.0 0.7044728 -3.0 1.2557735
0001e0 00 00 40 c0 84 d0 a1 3f 00 00 40 c0 3d 2b a1 3f
       -3.0 1.2641759 -3.0 1.259132
0001f0 00 00 40 c0 cd 68 a3 3f 00 00 40 c0 28 88 a0 3f
       -3.0 1.2766358 -3.0 1.2541552
000200 00 00 40 c0 c0 c3 36 3e 00 00 40 c0 db cf a1 3f
       -3.0 0.1784811 -3.0 1.2641557
000210 00 00 40 c0 80 2b eb 3d 00 00 40 c0 e7 ca 9e 3f
       -3.0 0.11482906 -3.0 1.2405671
000220 00 00 40 c0 a9 15 a3 3f 00 00 40 c0 3f 17 a0 3f
       -3.0 1.2740985 -3.0 1.2507094
000230 00 00 40 c0 00 72 c7 3d 00 00 40 c0 dc 0a 9f 3f
       -3.0 0.09738541 -3.0 1.2425189
000240 00 00 40 c0 2d e5 a0 3f 00 00 40 c0 11 24 a0 3f
       -3.0 1.2569939 -3.0 1.2511007
000250 00 00 40 c0 cb 29 9e 3f 00 00 40 c0 c1 80 a1 3f
       -3.0 1.2356504 -3.0 1.2617418
000260 00 00 40 c0 bc 26 a1 3f 00 00 40 c0 de 62 a3 3f
       -3.0 1.2589946 -3.0 1.2764547
000270 00 00 40 c0 00 a6 f3 3d 00 00 40 c0 9a 8a a1 3f
       -3.0 0.11896896 -3.0 1.2620423
000280 00 00 40 c0 b8 f5 9d 3f 00 00 40 c0 3a 9c 9e 3f
       -3.0 1.2340612 -3.0 1.2391427
000290 00 00 40 c0 61 f6 9e 3f 00 00 40 c0 11 16 9e 3f
       -3.0 1.2418939 -3.0 1.2350484
0002a0 00 00 40 c0 62 ca a0 3f 00 00 40 c0 7c a6 9e 3f
       -3.0 1.2561762 -3.0 1.2394557
0002b0 00 00 40 c0 e3 90 a1 3f 00 00 40 c0 51 0e a1 3f
       -3.0 1.2622341 -3.0 1.2582494
0002c0 00 00 40 c0 f5 6d 9f 3f 00 00 40 c0 e9 ce a0 3f
       -3.0 1.2455431 -3.0 1.2563144
0002d0 00 00 40 c0 86 75 a2 3f 00 00 40 c0 1e ce a0 3f
       -3.0 1.2692115 -3.0 1.2562902
0002e0 00 00 40 c0 3c ec a0 3f 00 00 40 c0 77 b9 9e 3f
       -3.0 1.2572093 -3.0 1.2400349
0002f0 00 00 40 c0 b2 de a0 3f 00 00 40 c0 7c c1 1a 3f
       -3.0 1.2567961 -3.0 0.60451484
000300 00 00 40 c0 9c 03 a1 3f 00 00 40 c0 c9 f7 a0 3f
       -3.0 1.2579226 -3.0 1.2575618
000310 00 00 40 c0 18 59 34 3f 00 00 40 c0 21 da a0 3f
       -3.0 0.70448446 -3.0 1.2566568
000320 00 00 40 c0 4c 2f a1 3f 00 00 40 c0 a0 55 9f 3f
       -3.0 1.2592559 -3.0 1.2448006
000330 00 00 40 c0 3c 2a a1 3f 00 00 40 c0 d7 79 a2 3f
       -3.0 1.2591014 -3.0 1.2693433
000340 00 00 40 c0 1a 0d a3 3f 00 00 40 c0 74 c0 a0 3f
       -3.0 1.2738373 -3.0 1.2558732
000350 00 00 40 c0 80 90 60 3e 00 00 40 c0 e4 9b a3 3f
       -3.0 0.21930122 -3.0 1.2781949
000360 00 00 40 c0 c8 8c 57 3f 00 00 40 c0 9c 26 10 3f
       -3.0 0.8419919 -3.0 0.56308913
000370 00 00 40 c0 ac f0 8a 3f 00 00 40 c0 98 c0 a0 3f
       -3.0 1.0854697 -3.0 1.2558775
000380 00 00 40 c0 ec 27 9f 3f 00 00 40 c0 1d bb 9e 3f
       -3.0 1.2434058 -3.0 1.2400852
000390 00 00 40 c0 6a ab a3 3f 00 00 40 c0 52 d3 a0 3f
       -3.0 1.2786686 -3.0 1.256449
0003a0 00 00 40 c0 da f4 9f 3f 00 00 40 c0 ad 49 a2 3f
       -3.0 1.2496598 -3.0 1.2678734
0003b0 00 00 40 c0 d1 2d a1 3f 00 00 40 c0 f5 e3 a0 3f
       -3.0 1.2592107 -3.0 1.2569567
0003c0 00 00 40 c0 7a 58 a0 3f 00 00 40 c0 f4 07 6b 3f
       -3.0 1.2527001 -3.0 0.9180901
0003d0 00 00 40 c0 f1 bf a2 3f 00 00 40 c0 af aa 9f 3f
       -3.0 1.2714826 -3.0 1.2473963
0003e0 00 00 40 c0 70 84 48 3e 00 00 40 c0 40 50 09 3f
       -3.0 0.19581771 -3.0 0.53638077
0003f0 00 00 40 c0 00 89 90 3d 00 00 40 c0 7f e6 a0 3f
       -3.0 0.07057381 -3.0 1.2570342
