models/path_tracking_state_feedback_small_torque.pth (torch, 141051 bytes, 18 tensors)

controller.net.0.weight f4 [8, 2]
0	0xbf356dc5	-0.7087062
1	0xbf1a2d6e	-0.6022557
2	0xbe9775db	-0.29582104
3	0xbf94e2f8	-1.1631765
4	0xbf2fad4c	-0.68623805
5	0x3eefe9ea	0.4685815
6	0xbf0a277f	-0.53966516
7	0xbfd59ca0	-1.6688423
8	0x3de807db	0.11329623
9	0xc00216d7	-2.032644
10	0x3ef9be44	0.48777974
11	0x3eed903d	0.46399108
12	0x3e84c8eb	0.25934538
13	0x3f1f821c	0.62307906
14	0xbe38189a	-0.17978135
15	0x3f8e7644	1.1129842

controller.net.0.bias f4 [8]
0	0xbe5ff185	-0.21869476
1	0x3f24a22a	0.6430994
2	0xbeabf22d	-0.33583203
3	0x3f452591	0.77010447
4	0x3eb49c5b	0.3527554
5	0xbed799a6	-0.42109412
6	0xbef43852	-0.4769922
7	0xbe454e3f	-0.1926813

controller.net.2.weight f4 [8, 8]
0	0x3eea65ed	0.45780888
1	0x3ef7abdb	0.48373303
2	0xbe8bdf0b	-0.27318606
3	0x3eadbfc6	0.33935374
4	0x3ed62e3a	0.41832143
5	0xbe67f5a0	-0.22652292
6	0x3da41a41	0.0801282
7	0xbe1d7903	-0.15378194
8	0x3e85d8b6	0.261419
9	0x3f5a37fa	0.85241663
10	0xbe5a7641	-0.21334173
11	0x3f7c8b9d	0.9865053
12	0x3f8df7c2	1.1091235
13	0xbe93d73a	-0.28875142
14	0x3db26afd	0.08711813
15	0xbf47777f	-0.7791671
16	0x3e550daf	0.20806001
17	0xbf198d45	-0.59981185
18	0x3e9a9d16	0.30197972
19	0x3d12ecf0	0.035870492
20	0xbe235037	-0.15948568
21	0x3e92ce2c	0.28672922
22	0x3e26368d	0.16231747
23	0x3e16a232	0.1471031
24	0x3eb64518	0.3559959
25	0x3dc849a6	0.09779672
26	0x3e63c7bb	0.2224416
27	0x3e819edb	0.2531651
28	0x3ea8d00e	0.32971233
29	0xbae0e2e8	-0.0017157467
30	0x3ee5bf1b	0.44872364
31	0xbd39477d	-0.045234192
32	0xbe8d2d90	-0.27573824
33	0xbe320c3f	-0.17387484
34	0xbd4150ae	-0.047196083
35	0xbd1f2203	-0.038850795
36	0xbb1d09d9	-0.0023962168
37	0x3e4f7963	0.20261149
38	0x3de8470a	0.113416746
39	0xbe85d81e	-0.26141447
40	0xbdd98448	-0.10620934
41	0xbdaa56c4	-0.083173305
42	0x3e5c5777	0.2151774
43	0xbe03570f	-0.12826179
44	0xbe1778ad	-0.14792128
45	0xbd68d5be	-0.056844465
46	0xbdb82f2f	-0.089933746
47	0xbdb24791	-0.087050565
48	0xbed63f77	-0.41845295
49	0xbe2e5479	-0.17024411
50	0x3df2b859	0.11851568
51	0xbf38ff38	-0.7226443
52	0xbf3813fc	-0.71905494
53	0x3df559e8	0.11980039
54	0x3ea30c50	0.3184533
55	0x3e959f72	0.2922321
56	0xbe08bc1e	-0.13353011
57	0x3e176e99	0.14788283
58	0xbe69852f	-0.22804712
59	0xbd21408a	-0.03936819
60	0xbe88819d	-0.26661387
61	0x3ea7e615	0.32792726
62	0x3e432748	0.19057953
63	0xbea75219	-0.32679823

controller.net.2.bias f4 [8]
0	0xbb3796ca	-0.0028013461
1	0x3ec33d73	0.3813282
2	0x3e8f3a63	0.27974233
3	0x3eb2ab0e	0.3489613
4	0xbe941690	-0.28923464
5	0xbe41d9a0	-0.18930674
6	0x3eac39b3	0.3363777
7	0xbe8a0712	-0.2695852

controller.net.4.weight f4 [8, 8]
0	0xbe0db97f	-0.13840292
1	0x3e848e0b	0.2588962
2	0x3ceb35f1	0.028712245
3	0x3ea439a8	0.32075238
4	0x3dd1e74c	0.102491945
5	0x3e210ca5	0.1572748
6	0xbf469a93	-0.7757961
7	0xbdc5d72a	-0.0966018
8	0x3e47b42d	0.19502325
9	0x3ee62d8d	0.44956627
10	0x3d451a31	0.04812068
11	0x3e1844c7	0.14869986
12	0xbe9d7565	-0.30753627
13	0xbeb2ab42	-0.34896284
14	0xbf3777af	-0.71667
15	0xbe0ae83c	-0.13565153
16	0x3de087ae	0.10963379
17	0xbd22bacf	-0.039728936
18	0x3f195748	0.59898806
19	0x3d9d456c	0.07679257
20	0xbd076594	-0.033055857
21	0xbdd96d2b	-0.10616525
22	0x3f9a9d0b	1.2079176
23	0xbce71dd5	-0.028212467
24	0xbeac3de1	-0.3364096
25	0x3dec0695	0.11524693
26	0x3ead4cb6	0.33847588
27	0xbe8f7d37	-0.2802522
28	0xbd9c61b6	-0.076358244
29	0x3d9d06fa	0.07667346
30	0xbe9367dd	-0.2879018
31	0xbe9afb4c	-0.3026985
32	0x3e8d05e6	0.27543563
33	0xbdf267a0	-0.11836171
34	0x3e5f0818	0.21780431
35	0x3d30c14f	0.043153103
36	0x3db0aa65	0.0862625
37	0xbe714906	-0.23563012
38	0xbd856c05	-0.06514744
39	0x3e6ed1b6	0.23322186
40	0x3e08487b	0.13308899
41	0xbe0c6249	-0.13709368
42	0x3d79a492	0.060947962
43	0x3e863890	0.2621503
44	0xbe9e9bd1	-0.30978253
45	0x3e688e0c	0.22710437
46	0xbdae38ca	-0.085069254
47	0xbd934da1	-0.07192541
48	0x3e32d197	0.17462765
49	0xbe987654	-0.29777777
50	0xbd0f555f	-0.034993526
51	0x3eb51b26	0.35372275
52	0x3e024cec	0.12724656
53	0xbe05dee4	-0.13073307
54	0xbd64a29a	-0.05581913
55	0x3e8ec1a0	0.278821
56	0x3e987372	0.29775578
57	0x3e59d1d1	0.21271445
58	0xbe1d9373	-0.15388279
59	0x3d2e07aa	0.042487778
60	0x3d816f4a	0.06320055
61	0x3d7c6f6a	0.06162969
62	0x3ebdd7e2	0.37078768
63	0x3e486a0b	0.19571702

controller.net.4.bias f4 [8]
0	0x3eb1bae3	0.34712896
1	0x3ea12bc5	0.31478706
2	0x3ebd483b	0.3696917
3	0xbd7be522	-0.061497815
4	0xbe99d916	-0.30048436
5	0xbea116dd	-0.31462756
6	0xbe50d315	-0.20393021
7	0xbca538c9	-0.020168679

controller.net.6.weight f4 [1, 8]
0	0x3e8a29da	0.26985055
1	0x3e920ba0	0.28524494
2	0xbea4f7a3	-0.32220182
3	0xbe89e4a6	-0.26932257
4	0x3eb82012	0.35961968
5	0x3e7fb74d	0.24972267
6	0x3e2aa440	0.16664219
7	0xbd355b53	-0.044276547

lyapunov.R f4 [3, 2]
0	0x3eab7297	0.33485863
1	0xc0190792	-2.391087
2	0xbeb1399e	-0.3461427
3	0x401d7472	2.4602323
4	0x3ff0a60f	1.8800677
5	0x40149fac	2.3222456

lyapunov.net.0.weight f4 [16, 2]
0	0xbffc49a0	-1.9709969
1	0x3f06cc5f	0.52655596
2	0x3f022751	0.5084124
3	0x3efddf3a	0.4958437
4	0x3e956b5f	0.2918348
5	0x3e220f89	0.15826239
6	0x3f7183ca	0.9434172
7	0x3e998bc2	0.2998944
8	0x3f6aacb3	0.9166977
9	0xc01f0dfd	-2.4852288
10	0xbf0571c7	-0.52126735
11	0xbffcb8c7	-1.974389
12	0xbf9834d3	-1.1891121
13	0xbf82df6b	-1.0224432
14	0xc0221d4a	-2.5330377
15	0xbf74109b	-0.9533784
16	0xc000d14a	-2.012774
17	0xbf3ab201	-0.7292786
18	0xc036140f	-2.8449743
19	0x401b8da7	2.4305208
20	0xbfb81423	-1.4381145
21	0xc0046de3	-2.069207
22	0x3f8e1cdb	1.1102556
23	0x3d5d282d	0.053993393
24	0x3fcbfdba	1.5936806
25	0xbfe93464	-1.8219113
26	0x3ed5e646	0.41777247
27	0xc013a647	-2.3070238
28	0x4001ce94	2.0282335
29	0x4062232f	3.5333974
30	0x40212167	2.5176637
31	0xc08b28e7	-4.348743

lyapunov.net.0.bias f4 [16]
0	0x3f1177b4	0.5682328
1	0x3f60f560	0.8787441
2	0xc081a518	-4.051403
3	0xc065023f	-3.578262
4	0xbf98f7f9	-1.1950675
5	0x3ed9f8e3	0.42572698
6	0x3e8cb0ec	0.2747873
7	0x3f221a86	0.6332172
8	0x3fdb41ef	1.7129496
9	0xbf4a36d5	-0.7898992
10	0x3fa49cbd	1.2860333
11	0xc0787949	-3.8824027
12	0x3d9dd922	0.077074304
13	0xbfd09651	-1.6295873
14	0x406060ea	3.5059152
15	0xbea24f73	-0.3170124

lyapunov.net.2.weight f4 [16, 16]
0	0x4046b82c	3.104991
1	0xc06abb12	-3.6676679
2	0xc039d2e0	-2.9034958
3	0xc03a16db	-2.907645
4	0xc018cb97	-2.3874261
5	0xbfa33427	-1.2750291
6	0x40854121	4.1642003
7	0xbea44b26	-0.32088584
8	0xbf2bc84b	-0.671025
9	0xbfffb5d4	-1.9977365
10	0xbf9336b6	-1.1501071
11	0xc000bec6	-2.011644
12	0xc0350241	-2.8282626
13	0x3f33c0d0	0.70216084
14	0xbff37cd8	-1.9022474
15	0xc00b5028	-2.1767673
16	0x3eb6a6b0	0.35674047
17	0xc060a74f	-3.5102117
18	0xbff6efe4	-1.9291959
19	0xbfcf060f	-1.6173724
20	0xc05fd801	-3.4975588
21	0xbf50fbc3	-0.8163416
22	0x4056bad6	3.3551536
23	0xbf30e8f9	-0.6910549
24	0xbf1d26d5	-0.6138738
25	0xbfac1d67	-1.3446473
26	0xc01a529f	-2.4112928
27	0xbf2daa19	-0.67837673
28	0xbf55ebdb	-0.8356301
29	0xbfcc6d89	-1.5970927
30	0xbfe21b2c	-1.7664542
31	0xbfe86fd3	-1.8159126
32	0xbf2e10c6	-0.67994344
33	0xbf937253	-1.1519264
34	0x3dc8a9a9	0.09797985
35	0x3f7e32e4	0.992964
36	0x3f32f517	0.6990523
37	0xbe629fe0	-0.221313
38	0xc0373818	-2.8627987
39	0x3f772fa9	0.965571
40	0x3fafb20f	1.3726214
41	0x3f92196d	1.1414009
42	0x40462a7e	3.0963435
43	0x40202905	2.5025036
44	0xbe74c6ec	-0.23904008
45	0xbff421d2	-1.9072821
46	0xbf4dea01	-0.80435187
47	0x3ec7f013	0.3905035
48	0x3c7e0203	0.015503409
49	0x3e33d856	0.17562994
50	0x3f28252d	0.65681726
51	0x3ff92b34	1.946631
52	0x3f073a1b	0.52823037
53	0xbf460fc4	-0.77367806
54	0xbfdf8998	-1.7463865
55	0x3fb48d13	1.4105552
56	0x3f7c1db3	0.9848282
57	0x3fca5444	1.5806966
58	0x4015935d	2.3371193
59	0x3fc68159	1.5508224
60	0xbf73796b	-0.95107144
61	0xbfc95baa	-1.5731099
62	0xbf1587bd	-0.58410245
63	0xbf81d603	-1.0143436
64	0xbf94a638	-1.1613226
65	0x3f8839a4	1.064259
66	0xbf7a53e8	-0.9778428
67	0x3e6781d8	0.22608125
68	0xbf16316d	-0.5866917
69	0xc033eac9	-2.8112051
70	0xbfe78437	-1.8087224
71	0x3ebfafac	0.37438715
72	0xbe67719f	-0.22601937
73	0x4011d6d4	2.278737
74	0xc07817d0	-3.8764534
75	0x3e813085	0.2523233
76	0xbf8c95a9	-1.0983173
77	0xc020d3cb	-2.5129268
78	0x3fdb60ba	1.7138894
79	0xbf5088de	-0.8145884
80	0x40088e94	2.1337023
81	0xc0704cf6	-3.7546973
82	0xbfe86563	-1.8155941
83	0xc020e37e	-2.513885
84	0xc0435e76	-3.0526404
85	0xbcc3bb94	-0.023893155
86	0x40a2e96b	5.0909934
87	0xbfee8f96	-1.8637569
88	0xc008eca8	-2.1394444
89	0xc0352acf	-2.8307378
90	0xc03f8305	-2.9923718
91	0xc0525cbb	-3.2869098
92	0xbfa970fd	-1.3237606
93	0xbf2a43fd	-0.6650999
94	0xc025f4c4	-2.5930643
95	0xbfb37b1e	-1.4021947
96	0x3fac72b5	1.3472506
97	0x3f62f774	0.88658834
98	0xbf135013	-0.5754406
99	0x3ebe7490	0.37198305
100	0xbec0e9e3	-0.3767844
101	0x408edef2	4.464715
102	0x3fe82f86	1.8139503
103	0xc01f87b1	-2.492657
104	0xc02347ed	-2.551265
105	0xbf11c795	-0.56945163
106	0xbf06ecb7	-0.5270495
107	0xbf1b9199	-0.6076904
108	0xc0147bfa	-2.320067
109	0x3fb3b4f2	1.4039595
110	0xbd0740c3	-0.033020746
111	0xbd1e41dc	-0.038637027
112	0x3e4dcea7	0.20098363
113	0xbc936095	-0.01799039
114	0x40bb57ea	5.8544817
115	0x4081cecb	4.0564933
116	0xbf1aa43c	-0.6040685
117	0xc08a86f3	-4.3289733
118	0xbfb50307	-1.4141549
119	0x3f8badec	1.0912452
120	0x3f18d1e1	0.5969525
121	0x40222883	2.5337226
122	0xc092a5cc	-4.582739
123	0x40a770f7	5.2325397
124	0x401c266b	2.4398448
125	0xbfba7d9a	-1.456958
126	0xc03c1dd4	-2.9393206
127	0xbfa7bf89	-1.3105327
128	0xbf9e3105	-1.235871
129	0xbea08e72	-0.31358677
130	0x4052ec57	3.295675
131	0x40034f2f	2.051708
132	0x3f38809d	0.7207125
133	0xbf1bf162	-0.60915196
134	0xc01d6c2c	-2.4597273
135	0x3f994a22	1.1975749
136	0x3f0a2c1a	0.53973544
137	0x3fb9b798	1.4509153
138	0x40594e37	3.3953989
139	0x4073a3ce	3.8068728
140	0x3ed7631d	0.42067805
141	0xc00a48b1	-2.1606867
142	0xbf6835be	-0.90707004
143	0x3f012ac0	0.50455856
144	0x3fae9b19	1.3641082
145	0xbf19b90c	-0.60047984
146	0x3e3c2715	0.18374284
147	0x3f8307d1	1.023676
148	0xbf320712	-0.6954204
149	0x3f51e41f	0.8198871
150	0xbfbf7a47	-1.4959191
151	0x402351db	2.551871
152	0x3fcf854a	1.6212552
153	0x4006e024	2.1074305
154	0x408a6f38	4.3260765
155	0x3ddc5b25	0.10759572
156	0xbfe5ffbf	-1.7968673
157	0xc032daa7	-2.7945955
158	0xbf4ff619	-0.8123489
159	0xbe0a0499	-0.13478316
160	0x3f02ce57	0.510961
161	0xbf334860	-0.7003231
162	0xc00e5e1f	-2.2244947
163	0xbfcab165	-1.5835387
164	0xbe84facb	-0.2597259
165	0x404ab47b	3.1672657
166	0x40920fc1	4.564423
167	0xbe8944b8	-0.2681024
168	0xbe8ee4e5	-0.27909008
169	0xbf35029d	-0.7070711
170	0xbf1ca6d2	-0.6119205
171	0xc0740593	-3.8128402
172	0xbf8f8dc4	-1.1215138
173	0x40436360	3.0529404
174	0x3f6694b8	0.90070677
175	0x3de02a3e	0.10945557
176	0xbefa79e7	-0.4892113
177	0x4036f48b	2.8586757
178	0x4005eaa9	2.0924475
179	0x3ffb726d	1.9644295
180	0x40073e6a	2.1131845
181	0xc02f9fcd	-2.7441285
182	0xbfc25eeb	-1.5185217
183	0x3fd0a1fe	1.6299436
184	0x40025a33	2.0367553
185	0x406d1e4d	3.7049744
186	0x405483e5	3.3205502
187	0x3fc95169	1.572797
188	0xbe297c25	-0.16551264
189	0xc0526525	-3.2874234
190	0x401f1d74	2.4861727
191	0x3feeb856	1.8650005
192	0xbf0acf25	-0.5422233
193	0x3dcaba2c	0.09898791
194	0x402c57a8	2.69285
195	0x40226474	2.5373812
196	0x3e3f8101	0.18701555
197	0xbe10ac5c	-0.1412825
198	0xbeb17d48	-0.34665895
199	0x3ff7ad96	1.9349849
200	0x3f8a38fd	1.0798641
201	0x40301f45	2.7519085
202	0xbf8a9d0b	-1.0829176
203	0x401672b7	2.3507516
204	0x4012967a	2.2904344
205	0x3fc6cc1f	1.5531043
206	0xbfa6a71d	-1.3019749
207	0xbeabddc7	-0.3356764
208	0xc01d9fc0	-2.4628754
209	0x40780b01	3.8756716
210	0x3feb09d7	1.8362378
211	0x3ffb5dd7	1.9638013
212	0x4020d0c6	2.5127425
213	0xc07a2efc	-3.9091177
214	0xc0a8eeb6	-5.2791395
215	0x3c1c2026	0.009529149
216	0x3e8922a9	0.26784256
217	0xc0231491	-2.5481303
218	0xbf5b2b28	-0.85612726
219	0x4041c173	3.0274322
220	0xbff80b23	-1.9378399
221	0xc04d0b71	-3.2038233
222	0x3f89b030	1.0756893
223	0x3fd18e32	1.637152
224	0x3f8d952d	1.106115
225	0xc03db960	-2.9644394
226	0xc00ab05c	-2.1670141
227	0xc0464c05	-3.0983899
228	0xc05630f2	-3.3467374
229	0x3f71b075	0.9440988
230	0x409b435e	4.8519735
231	0xbfd58d16	-1.6683681
232	0xc00f1ad6	-2.236013
233	0xc0125236	-2.2862678
234	0xc073a95b	-3.8072116
235	0xc01fbdc0	-2.4959564
236	0xbfb3020f	-1.3985003
237	0xbc92b329	-0.017907696
238	0xc021284d	-2.5180848
239	0xbf86706a	-1.0503056
240	0xbf83a089	-1.0283366
241	0x3f5b8c6d	0.8576115
242	0x40c12552	6.0358057
243	0x408eca6e	4.4622107
244	0xbf0ac440	-0.54205704
245	0xc0439121	-3.055733
246	0x3ea5340d	0.32266274
247	0x3f820370	1.0157299
248	0x3fb0d53c	1.3815074
249	0x3fb5020a	1.4141247
250	0xc0b13591	-5.537789
251	0x4068cfff	3.637695
252	0x3e1937a2	0.14962628
253	0xbfdaf42c	-1.7105765
254	0xc02fc6c5	-2.746507
255	0xbf58b409	-0.8464971

lyapunov.net.2.bias f4 [16]
0	0x3efd5749	0.49480656
1	0xbec2f4ba	-0.38077337
2	0x402a8ad7	2.664724
3	0x40d409ab	6.62618
4	0xbf7127b5	-0.94201213
5	0xbf7683c4	-0.9629481
6	0xbf6780c2	-0.90430844
7	0xc116463e	-9.392149
8	0xc04424ee	-3.064754
9	0x41284de2	10.519014
10	0x4082ac65	4.0835443
11	0x4022df64	2.5448847
12	0xbef37369	-0.47548988
13	0xc0087f4d	-2.1327698
14	0xbf9c8a90	-1.2229786
15	0xc0b77000	-5.732422

lyapunov.net.4.weight f4 [8, 16]
0	0x3f8103a2	1.0079234
1	0x3f417540	0.75569534
2	0xc013ea9a	-2.311194
3	0xbd5d670d	-0.054053355
4	0xbfc373e9	-1.5269748
5	0x3f1d34be	0.61408603
6	0x3f8ec726	1.1154525
7	0x3f542be2	0.8287946
8	0xbf89aa37	-1.075507
9	0xbec5eef0	-0.38658857
10	0x3fdddcb4	1.7332978
11	0x3f2c41af	0.67287725
12	0xc0388504	-2.8831186
13	0x3fc3e813	1.5305198
14	0x3f831d95	1.0243403
15	0xbf8b8689	-1.0900432
16	0x4035fb79	2.8434737
17	0x4009822d	2.1485703
18	0xbf1724af	-0.5904035
19	0x3b52daf5	0.0032173966
20	0xbfdb06e8	-1.7111483
21	0x405b9a90	3.4313087
22	0x406112a2	3.5167623
23	0xc047f065	-3.1240475
24	0xbedc4772	-0.43023258
25	0xbf2a65d3	-0.6656162
26	0x3ff723b4	1.9307771
27	0x3c947403	0.018121725
28	0xc009f499	-2.155554
29	0xbe28e8f9	-0.16495122
30	0x409396d3	4.612161
31	0xbfddc413	-1.7325462
32	0xbeeec991	-0.46638158
33	0xbe1d3318	-0.15351522
34	0xbfe11445	-1.7584311
35	0xc0210de1	-2.516472
36	0xbe11d926	-0.14242992
37	0xbe894fe4	-0.26818764
38	0xc08bf2ac	-4.373373
39	0x40a2af1d	5.083876
40	0xbff2c768	-1.8967104
41	0xbf4de6a5	-0.8043006
42	0xc01fb0fb	-2.495177
43	0xc018617a	-2.3809495
44	0x3f933293	1.1499809
45	0xbeb5052e	-0.35355514
46	0xbf8703fc	-1.0548091
47	0x3faa3453	1.3297218
48	0xbf037ce4	-0.5136244
49	0x3e6da473	0.23207264
50	0xc001e76b	-2.0297496
51	0xbfe80733	-1.8127197
52	0xbf68dd8f	-0.9096307
53	0xbf1a3296	-0.6023344
54	0xc09d91c1	-4.924042
55	0x40a84672	5.2585993
56	0xc03a2400	-2.9084473
57	0xbfe0b46d	-1.7555062
58	0xc0374e3e	-2.8641505
59	0xc04cc056	-3.1992393
60	0x3f8a6fa0	1.0815315
61	0xbff0c4e3	-1.8810085
62	0xbf14fe9d	-0.5820101
63	0x3e260f51	0.1621678
64	0xbf56e3dc	-0.83941436
65	0xc002961d	-2.0404122
66	0x3f7e5106	0.9934238
67	0x3d9c8fc4	0.076446086
68	0xc03416da	-2.8138947
69	0xc00d238e	-2.205295
70	0x3fc245db	1.5177568
71	0xc09b6bf8	-4.85693
72	0xbe8e2ebb	-0.27770028
73	0x3fa73624	1.3063397
74	0xbe920232	-0.285173
75	0x40322ffc	2.7841787
76	0xbf1ac7cc	-0.60461116
77	0x3fb8dd6b	1.4442571
78	0xbff1fd99	-1.8905517
79	0xc053543a	-3.3020158
80	0xbf5d2c44	-0.8639567
81	0x3f8e53ed	1.1119362
82	0xbddaccfa	-0.106836274
83	0xbfdb619c	-1.7139163
84	0x3f28a832	0.65881646
85	0x3e48c6ba	0.19607058
86	0xc0317fc8	-2.7734241
87	0x3fd7abbe	1.6849287
88	0xbfc540c6	-1.5410392
89	0x3f06979f	0.52575105
90	0xc05f4af8	-3.4889507
91	0xbf76bf7e	-0.96385944
92	0x3fb51eb8	1.415
93	0x3eeccfc1	0.46252254
94	0xbeaa141e	-0.33218473
95	0xbe8677e2	-0.26263338
96	0x3f94a2a6	1.1612136
97	0x402b5b45	2.6774457
98	0xc0556cf8	-3.334776
99	0xbfbd9333	-1.4810547
100	0xc047a4e4	-3.1194391
101	0x40266620	2.5999832
102	0x4043f488	3.0618
103	0xc00a0639	-2.1566298
104	0xc028852f	-2.633129
105	0xbf97109a	-1.1801941
106	0x3f3555eb	0.70834225
107	0xbe7c0bd7	-0.24613892
108	0x3e112b6c	0.1417672
109	0xbf3052a1	-0.6887608
110	0x4083b7aa	4.11617
111	0xc07b4332	-3.9259763
112	0x3e3bbc4d	0.1833355
113	0xbf058bfc	-0.52166724
114	0xc0225096	-2.5361686
115	0xc005575b	-2.0834568
116	0xbfc87ee3	-1.5663723
117	0xbff45235	-1.9087588
118	0xc0a8c536	-5.2740736
119	0x4093730b	4.6077933
120	0xc01a3348	-2.40938
121	0xbf9ff784	-1.2497411
122	0xc082a8d4	-4.083109
123	0xc015ccc7	-2.3406236
124	0x3f4a21bd	0.7895773
125	0xbfcb4c4a	-1.5882657
126	0xbff88371	-1.9415113
127	0x3f31dd5b	0.69478387

lyapunov.net.4.bias f4 [8]
0	0x3e0e64d3	0.13905649
1	0xc04052b6	-3.0050483
2	0xbfac05a9	-1.3439227
3	0xbe4e2bd1	-0.20133902
4	0xbd77e9fc	-0.06052588
5	0xc0b7d761	-5.7450414
6	0x3de6c663	0.11268308
7	0xbe254424	-0.16139275

lyapunov.net.6.weight f4 [1, 8]
0	0xbd71d484	-0.05904056
1	0xbe616b19	-0.22013511
2	0x3f05d67b	0.52280396
3	0x3e8dd46e	0.27701133
4	0xbc4a30f2	-0.012340771
5	0x402f6bb9	2.7409499
6	0xbf095af2	-0.53654397
7	0x3db64f4c	0.089018434

lower_limit f4 [2]
0	0xc0400000	-3.0
1	0xc0400000	-3.0

upper_limit f4 [2]
0	0x40400000	3.0
1	0x40400000	3.0

x_boundary f4 [16384, 2]
0	0xc0400000	-3.0
1	0x3f8c7734	1.0973878
2	0xc0400000	-3.0
3	0x3f8c8c82	1.098038
4	0xc0400000	-3.0
5	0x3f89829b	1.0742983
6	0xc0400000	-3.0
7	0x3f0f8a45	0.5607036
8	0xc0400000	-3.0
9	0x3f8c9281	1.098221
10	0xc0400000	-3.0
11	0x3f0d4563	0.55184
12	0xc0400000	-3.0
13	0x3f10add0	0.56515217
14	0xc0400000	-3.0
15	0x3f8c55c2	1.0963671
16	0xc0400000	-3.0
17	0x3f160cdf	0.5861339
18	0xc0400000	-3.0
19	0x3f0e53a5	0.5559638
20	0xc0400000	-3.0
21	0x3f8cc16e	1.099653
22	0xc0400000	-3.0
23	0x3f8c94bf	1.0982894
24	0xc0400000	-3.0
25	0x3f0e0a34	0.5548432
26	0xc0400000	-3.0
27	0x3f889bc6	1.0672538
28	0xc0400000	-3.0
29	0x3f8955d5	1.0729319
30	0xc0400000	-3.0
31	0x3f178328	0.59184504
32	0xc0400000	-3.0
33	0x3f10b693	0.56528586
34	0xc0400000	-3.0
35	0x3f18d07c	0.5969312
36	0xc0400000	-3.0
37	0x3f0ee5ba	0.55819285
38	0xc0400000	-3.0
39	0x3e6b2500	0.22963333
40	0xc0400000	-3.0
41	0x3f15d6f5	0.58531123
42	0xc0400000	-3.0
43	0x3f0e413f	0.5556831
44	0xc0400000	-3.0
45	0x3f8b8eaa	1.0902913
46	0xc0400000	-3.0
47	0x3f0cf744	0.550648
48	0xc0400000	-3.0
49	0x3f116f0c	0.5681007
50	0xc0400000	-3.0
51	0x3f156104	0.5835116
52	0xc0400000	-3.0
53	0x3f8c9084	1.0981603
54	0xc0400000	-3.0
55	0x3f11b0d7	0.5691046
56	0xc0400000	-3.0
57	0x3f0ce0d5	0.55030566
58	0xc0400000	-3.0
59	0x3f14277e	0.5787276
60	0xc0400000	-3.0
61	0x3f13e729	0.577746
62	0xc0400000	-3.0
63	0x3f0cfd54	0.5507405
64	0xc0400000	-3.0
65	0x3f8a12df	1.0787009
66	0xc0400000	-3.0
67	0x3f8d8948	1.105752
68	0xc0400000	-3.0
69	0x3f15200b	0.5825202
70	0xc0400000	-3.0
71	0x3f126703	0.57188433
72	0xc0400000	-3.0
73	0x3f10acc8	0.56513643
74	0xc0400000	-3.0
75	0x3f0cf8ef	0.5506734
76	0xc0400000	-3.0
77	0x3f1882b3	0.5957443
78	0xc0400000	-3.0
79	0x3f0d5271	0.5520392
80	0xc0400000	-3.0
81	0x3f126d7d	0.57198316
82	0xc0400000	-3.0
83	0x3f0d1de4	0.55123734
84	0xc0400000	-3.0
85	0x3f13fce8	0.5780778
86	0xc0400000	-3.0
87	0x3f8c3c14	1.0955834
88	0xc0400000	-3.0
89	0x3f199342	0.5999032
90	0xc0400000	-3.0
91	0x3f15d075	0.58521205
92	0xc0400000	-3.0
93	0x3f8d7df0	1.1054058
94	0xc0400000	-3.0
95	0x3f8c89b3	1.0979522
96	0xc0400000	-3.0
97	0x3ee19400	0.44058228
98	0xc0400000	-3.0
99	0x3f0ebf77	0.557609
100	0xc0400000	-3.0
101	0x3f183185	0.5945056
102	0xc0400000	-3.0
103	0x3f8d03e3	1.1016811
104	0xc0400000	-3.0
105	0x3f167eb5	0.5878709
106	0xc0400000	-3.0
107	0x3f108b24	0.5646231
108	0xc0400000	-3.0
109	0x3f8b13a5	1.086537
110	0xc0400000	-3.0
111	0x3f130621	0.57431227
112	0xc0400000	-3.0
113	0x3f10aef8	0.5651698
114	0xc0400000	-3.0
115	0x3f0e1f74	0.55516744
116	0xc0400000	-3.0
117	0x3f0f7837	0.5604281
118	0xc0400000	-3.0
119	0x3f8c5270	1.0962658
120	0xc0400000	-3.0
121	0x3f0cf262	0.55057347
122	0xc0400000	-3.0
123	0x3f0e96c1	0.5569878
124	0xc0400000	-3.0
125	0x3f0e7fb3	0.55663604
126	0xc0400000	-3.0
127	0x3f8bd2b9	1.0923682
128	0xc0400000	-3.0
129	0x3e36c3c0	0.1784811
130	0xc0400000	-3.0
131	0x3f0ce58c	0.5503776
132	0xc0400000	-3.0
133	0x3deb2b80	0.11482906
134	0xc0400000	-3.0
135	0x3f8cc0ab	1.0996298
136	0xc0400000	-3.0
137	0x3f0dd968	0.5540986
138	0xc0400000	-3.0
139	0x3f129530	0.5725889
140	0xc0400000	-3.0
141	0x3dc77200	0.09738541
142	0xc0400000	-3.0
143	0x3f133981	0.5750962
144	0xc0400000	-3.0
145	0x3f0d2bb4	0.5514481
146	0xc0400000	-3.0
147	0x3f11ab33	0.56901854
148	0xc0400000	-3.0
149	0x3f8dd11c	1.107944
150	0xc0400000	-3.0
151	0x3f0cda1e	0.5502032
152	0xc0400000	-3.0
153	0x3f0cec41	0.55047995
154	0xc0400000	-3.0
155	0x3f0d7495	0.55256015
156	0xc0400000	-3.0
157	0x3df3a600	0.11896896
158	0xc0400000	-3.0
159	0x3f8ba824	1.0910687
160	0xc0400000	-3.0
161	0x3f10c4c5	0.56550246
162	0xc0400000	-3.0
163	0x3f10e92b	0.56605786
164	0xc0400000	-3.0
165	0x3f121e10	0.5707712
166	0xc0400000	-3.0
167	0x3f0fab0f	0.5612039
168	0xc0400000	-3.0
169	0x3f0d0bd7	0.5509619
170	0xc0400000	-3.0
171	0x3f10adcc	0.56515193
172	0xc0400000	-3.0
173	0x3f0cdffa	0.5502926
174	0xc0400000	-3.0
175	0x3f190bc1	0.5978356
176	0xc0400000	-3.0
177	0x3f88738a	1.066026
178	0xc0400000	-3.0
179	0x3f8bca41	1.0921098
180	0xc0400000	-3.0
181	0x3f0cd9f3	0.55020064
182	0xc0400000	-3.0
183	0x3f15d596	0.5852903
184	0xc0400000	-3.0
185	0x3f158e3d	0.58420163
186	0xc0400000	-3.0
187	0x3f8de26b	1.1084722
188	0xc0400000	-3.0
189	0x3f1760fb	0.59132355
190	0xc0400000	-3.0
191	0x3f0e88c4	0.5567744
192	0xc0400000	-3.0
193	0x3f0cf7db	0.550657
194	0xc0400000	-3.0
195	0x3f15be67	0.58493656
196	0xc0400000	-3.0
197	0x3f0facf2	0.5612327
198	0xc0400000	-3.0
199	0x3f8aa4a3	1.0831493
200	0xc0400000	-3.0
201	0x3f8c884a	1.0979092
202	0xc0400000	-3.0
203	0x3f12d678	0.57358503
204	0xc0400000	-3.0
205	0x3f0d1f8f	0.5512628
206	0xc0400000	-3.0
207	0x3f8c903e	1.0981519
208	0xc0400000	-3.0
209	0x3f8c72a2	1.0972483
210	0xc0400000	-3.0
211	0x3f165d65	0.5873626
212	0xc0400000	-3.0
213	0x3e609080	0.21930122
214	0xc0400000	-3.0
215	0x3f0ee5dc	0.5581949
216	0xc0400000	-3.0
217	0x3f0d4a9b	0.55191964
218	0xc0400000	-3.0
219	0x3f0ef4f1	0.558425
220	0xc0400000	-3.0
221	0x3f167ccf	0.5878419
222	0xc0400000	-3.0
223	0x3f8a302c	1.0795951
224	0xc0400000	-3.0
225	0x3f0eb48e	0.55744255
226	0xc0400000	-3.0
227	0x3f8dbf6f	1.1074046
228	0xc0400000	-3.0
229	0x3f0f04f5	0.5586694
230	0xc0400000	-3.0
231	0x3f0e009d	0.55469686
232	0xc0400000	-3.0
233	0x3f14ed2b	0.5817439
234	0xc0400000	-3.0
235	0x3f8c92e6	1.098233
236	0xc0400000	-3.0
237	0x3f0cd801	0.55017096
238	0xc0400000	-3.0
239	0x3f10f3a6	0.5662178
240	0xc0400000	-3.0
241	0x3f15e884	0.58557916
242	0xc0400000	-3.0
243	0x3f15e795	0.5855649
244	0xc0400000	-3.0
245	0x3f8c7fb5	1.0976473
246	0xc0400000	-3.0
247	0x3f1177cb	0.56823415
248	0xc0400000	-3.0
249	0x3e488470	0.19581771
250	0xc0400000	-3.0
251	0x3f095040	0.53638077
252	0xc0400000	-3.0
253	0x3d908900	0.07057381
254	0xc0400000	-3.0
255	0x3f0def75	0.5544351
