models/pendulum_state_feedback_quadratic.pth (torch, 333363 bytes, 10 tensors)

controller.net.0.weight f4 [8, 2]
-0.03172895 0.027215855 -0.22776957 -0.005900747 -0.11119717 -0.021736346 -0.11234731 -0.028307537
-0.030400354 0.044934154 0.57054526 0.13171639 -0.11134527 -0.021761531 0.14428397 -0.013071749
00000000: 37f6 01bd c9f3 de3c 6d3c 69be 0e5b c1bb
00000010: 58bb e3bd 6c10 b2bc 5916 e6bd 35e5 e7bc
00000020: 2a0a f9bc e00c 383d 410f 123f a9e0 063e
00000030: fd08 e4bd 3d45 b2bc 2dbf 133e e42a 56bc

controller.net.0.bias f4 [8]
-0.12962785 0.12654492 -0.04581392 0.091296665 -0.18463556 0.16423161 -0.045859598 0.183931
00000000: 2abd 04be fe94 013e 61a7 3bbd bff9 ba3d
00000010: 1b11 3dbe 552c 283e 46d7 3bbd 6858 3c3e

controller.net.2.weight f4 [8, 8]
4.811592e-06 -1.2487972e-06 -5.137304e-06 1.3831876e-06 -9.9624995e-06 3.7537468e-06 1.4725406e-06 -1.4358313e-05
-9.973253e-06 -0.006708895 -0.0022839822 -0.0058343047 -9.7106924e-05 -0.0031068732 -0.002283263 -0.0019165932
2.9082608e-07 -8.677699e-06 7.037667e-06 -5.1032375e-06 9.958789e-06 -8.8612105e-06 -9.070773e-06 -2.6484008e-06
-0.01518861 0.002333119 0.0037569376 -0.028116956 -0.010331839 0.0024277882 0.0038346418 -0.07398007
0.10040063 -0.012644742 1.43552425e-05 0.0100949835 0.17633542 0.0653058 3.1027116e-06 0.08213063
-0.00077864266 -0.0015189522 1.770505e-05 0.0003481212 -0.008710462 -0.009603175 -1.12404705e-05 -0.02073454
-0.06771054 0.31803536 0.010052543 0.08040379 -0.14633986 -0.8974766 0.010026405 -0.10510673
-1.2433552e-06 -0.0063611916 -0.0024591654 -0.005789814 -0.001655485 0.0042953864 -0.002431168 2.8227005e-06
00000000: 4373 a136 589c a7b5 1b61 acb6 f7a5 b935
00000010: 9c24 27b7 e1e8 7b36 1ca4 c535 7ce4 70b7
00000020: cc52 27b7 4ad6 dbbb ddae 15bb b22d bfbb
00000030: e2a5 cbb8 af9c 4bbb cca2 15bb 3236 fbba
00000040: d522 9c34 6f96 11b7 1925 ec36 7a3c abb6
00000050: ac14 2737 9caa 14b7 ac2e 18b7 2ebb 31b6
00000060: a6d9 78bc 3ee7 183b f436 763b 8855 e6bc
00000070: e046 29bc 871b 1f3b 9d4e 7b3b dd82 97bd
00000080: d89e cd3d e42b 4fbc 4cd7 7037 6e65 253c
00000090: 4691 343e 0cbf 853d 2e38 5036 1b34 a83d
000000a0: d31d 4cba 9417 c7ba 4e85 9437 0984 b639
000000b0: 53b6 0ebc a356 1dbc 7495 3cb7 7bdb a9bc
000000c0: d3ab 8abd 88d5 a23e 6cb3 243c beaa a43d
000000d0: 1eda 15be 07c1 65bf ca45 243c 3242 d7bd
000000e0: 5ce1 a6b5 8b71 d0bb f329 21bb 7bb8 bdbb
000000f0: dcfc d8ba 50c0 8c3b 3b54 1fbb a06d 3d36

controller.net.2.bias f4 [8]
-1.807533e-05 -0.0052080182 -1.10504054e-07 -0.004253566 0.027250241 -0.008427958 0.2614707 -0.005258854
00000000: 7aa0 97b7 06a8 aabb 3f4e edb3 7f61 8bbb
00000010: e63b df3c 6b15 0abc 7ddf 853e 7752 acbb

controller.net.4.weight f4 [8, 8]
8.182111e-06 -2.997168e-06 -1.7638497e-05 -0.00093800086 0.15985589 0.0054075057 -0.16800427 -4.244956e-06
9.98042e-06 9.597957e-06 -1.7639457e-05 -0.0026349528 0.16639005 0.0034971447 -0.18758802 0.00010234498
-2.828357e-06 -1.7637318e-05 -7.886496e-06 -7.0872525e-06 -6.6191255e-06 -2.8505424e-06 -9.5195185e-07 1.7634618e-05
2.6484954e-06 4.8881434e-06 -7.0468127e-06 -0.0012569529 0.16400172 0.005048567 -0.21046814 2.1975135e-05
1.5331888e-06 0.004542592 -6.199441e-06 0.01066067 -0.09089328 0.007581123 2.4552548 0.0043275915
1.2153209e-06 -7.0483625e-06 -8.222551e-06 -5.5614414e-06 7.883547e-06 7.888257e-06 -7.0116994e-06 -7.885172e-06
-7.907989e-06 -9.986823e-06 9.955369e-06 8.234658e-06 1.7651928e-05 -1.7637602e-05 -8.391258e-06 -5.1712173e-06
-3.310447e-07 -7.2358976e-06 -1.437384e-05 -0.012154446 0.11967149 -0.0069974056 0.00084345916 -8.2028855e-05
00000000: e645 0937 f422 49b6 62f6 93b7 2ce4 75ba
00000010: 43b1 233e 7231 b13b 5009 2cbe e56f 8eb6
00000020: 9471 2737 e906 2137 72f8 93b7 2caf 2cbb
00000030: 2762 2a3e 5a30 653b 1317 40be 0ba2 d638
00000040: cece 3db6 daf3 93b7 3e50 04b7 09cf edb6
00000050: db19 deb6 f24b 3fb6 a289 7fb5 0eee 9337
00000060: cebc 3136 d504 a436 a973 ecb6 57c0 a4ba
00000070: 11f0 273e 736e a53b f684 57be 3e57 b837
00000080: f7c7 cd35 06da 943b cb04 d0b6 17aa 2e3c
00000090: 4226 babd 126b f83b e522 1d40 78ce 8d3b
000000a0: 1c1e a335 f980 ecb6 96f3 09b7 6b9c bab6
000000b0: 9443 0437 ce57 0437 0a46 ebb6 8e4a 04b7
000000c0: 8eac 04b7 148d 27b7 fc05 2737 9627 0a37
000000d0: 3a13 9437 76f4 93b7 2ec8 0cb7 6b84 adb6
000000e0: 70ba b1b4 e3cb f2b6 2c27 71b7 7123 47bc
000000f0: 5316 f53d 7e4a e5bb 961b 5d3a e806 acb8

controller.net.4.bias f4 [8]
0.026250543 0.04341168 -1.81713e-05 0.037732337 0.023885835 -9.385851e-06 -1.3391498e-05 0.0053929416
00000000: 610b d73c 72d0 313d 926e 98b7 398d 1a3d
00000010: 3aac c33c ec77 1db7 0cac 60b7 46b7 b03b

controller.net.6.weight f4 [1, 8]
-0.25452045 -0.25697485 1.0059827e-05 -0.25431183 2.4414914 -7.15282e-06 -8.735045e-06 -0.05210655
00000000: 8150 82be 3592 83be a1c6 2837 2935 82be
00000010: 6541 1c40 4202 f0b6 bc8c 12b7 ae6d 55bd

lower_limit f4 [2]
-12.0 -12.0
00000000: 0000 40c1 0000 40c1

upper_limit f4 [2]
12.0 12.0
00000000: 0000 4041 0000 4041

x_boundary f4 [40960, 2]
-12.0 0.017253876 -12.0 9.549206 -12.0 12.0 -12.0 12.0
-12.0 0.63561153 -12.0 12.0 -12.0 12.0 -12.0 12.0
-12.0 1.4133129 -12.0 12.0 -12.0 12.0 -12.0 11.811559
-12.0 11.360742 -12.0 3.2686243 -12.0 12.0 -12.0 12.0
-12.0 12.0 -12.0 12.0 -12.0 7.423429 -12.0 12.0
-12.0 12.0 -12.0 12.0 -12.0 6.8335257 -12.0 12.0
-12.0 0.5862808 -12.0 12.0 -12.0 12.0 -12.0 1.8348484
-12.0 7.587294 -12.0 12.0 -12.0 7.977133 -12.0 12.0
-12.0 5.307212 -12.0 10.687039 -12.0 12.0 -12.0 12.0
-12.0 12.0 -12.0 11.659014 -12.0 12.0 -12.0 11.485677
-12.0 10.265395 -12.0 12.0 -12.0 12.0 -12.0 12.0
-12.0 0.4610672 -12.0 3.9437923 -12.0 10.744112 -12.0 12.0
-12.0 12.0 -12.0 12.0 -12.0 3.4405098 -12.0 12.0
-12.0 1.7416382 -12.0 5.8479595 -12.0 12.0 -12.0 12.0
-12.0 12.0 -12.0 7.0435796 -12.0 0.29855156 -12.0 12.0
-12.0 9.426038 -12.0 12.0 -12.0 12.0 -12.0 2.8451538
-12.0 2.509348 -12.0 12.0 -12.0 12.0 -12.0 10.919802
-12.0 12.0 -12.0 6.6753235 -12.0 12.0 -12.0 12.0
-12.0 5.759135 -12.0 12.0 -12.0 6.6494865 -12.0 12.0
-12.0 2.447032 -12.0 12.0 -12.0 12.0 -12.0 5.8465195
-12.0 3.0155563 -12.0 12.0 -12.0 12.0 -12.0 0.551178
-12.0 12.0 -12.0 5.557377 -12.0 12.0 -12.0 12.0
-12.0 12.0 -12.0 12.0 -12.0 12.0 -12.0 2.6522036
-12.0 6.799514 -12.0 12.0 -12.0 12.0 -12.0 0.19313717
-12.0 11.346922 -12.0 7.6345644 -12.0 12.0 -12.0 1.0613613
-12.0 3.546671 -12.0 12.0 -12.0 8.578229 -12.0 12.0
-12.0 12.0 -12.0 12.0 -12.0 12.0 -12.0 3.662531
-12.0 10.186659 -12.0 12.0 -12.0 12.0 -12.0 4.02806
-12.0 12.0 -12.0 0.2331667 -12.0 12.0 -12.0 1.9332705
-12.0 12.0 -12.0 10.476245 -12.0 8.939337 -12.0 11.750732
-12.0 8.271828 -12.0 5.268169 -12.0 12.0 -12.0 12.0
-12.0 7.5499144 -12.0 10.602114 -12.0 9.873015 -12.0 7.336384
00000000: 0000 40c1 0058 8d3c 0000 40c1 8cc9 1841
00000010: 0000 40c1 0000 4041 0000 40c1 0000 4041
00000020: 0000 40c1 70b7 223f 0000 40c1 0000 4041
00000030: 0000 40c1 0000 4041 0000 40c1 0000 4041
00000040: 0000 40c1 70e7 b43f 0000 40c1 0000 4041
00000050: 0000 40c1 0000 4041 0000 40c1 25fc 3c41
00000060: 0000 40c1 99c5 3541 0000 40c1 2431 5140
00000070: 0000 40c1 0000 4041 0000 40c1 0000 4041
00000080: 0000 40c1 0000 4041 0000 40c1 0000 4041
00000090: 0000 40c1 bb8c ed40 0000 40c1 0000 4041
000000a0: 0000 40c1 0000 4041 0000 40c1 0000 4041
000000b0: 0000 40c1 3eac da40 0000 40c1 0000 4041
000000c0: 0000 40c1 8016 163f 0000 40c1 0000 4041
000000d0: 0000 40c1 0000 4041 0000 40c1 50dc ea3f
000000e0: 0000 40c1 1dcb f240 0000 40c1 0000 4041
000000f0: 0000 40c1 ac44 ff40 0000 40c1 0000 4041
00000100: 0000 40c1 aed4 a940 0000 40c1 1dfe 2a41
00000110: 0000 40c1 0000 4041 0000 40c1 0000 4041
00000120: 0000 40c1 0000 4041 0000 40c1 528b 3a41
00000130: 0000 40c1 0000 4041 0000 40c1 55c5 3741
00000140: 0000 40c1 0f3f 2441 0000 40c1 0000 4041
00000150: 0000 40c1 0000 4041 0000 40c1 0000 4041
00000160: 0000 40c1 0011 ec3e 0000 40c1 1867 7c40
00000170: 0000 40c1 e2e7 2b41 0000 40c1 0000 4041
00000180: 0000 40c1 0000 4041 0000 40c1 0000 4041
00000190: 0000 40c1 5031 5c40 0000 40c1 0000 4041
000001a0: 0000 40c1 00ee de3f 0000 40c1 7c22 bb40
000001b0: 0000 40c1 0000 4041 0000 40c1 0000 4041
000001c0: 0000 40c1 0000 4041 0000 40c1 0165 e140
000001d0: 0000 40c1 c0db 983e 0000 40c1 0000 4041
000001e0: 0000 40c1 0dd1 1641 0000 40c1 0000 4041
000001f0: 0000 40c1 0000 4041 0000 40c1 0017 3640
00000200: 0000 40c1 2899 2040 0000 40c1 0000 4041
00000210: 0000 40c1 0000 4041 0000 40c1 82b7 2e41
00000220: 0000 40c1 0000 4041 0000 40c1 409c d540
00000230: 0000 40c1 0000 4041 0000 40c1 0000 4041
00000240: 0000 40c1 d54a b840 0000 40c1 0000 4041
00000250: 0000 40c1 98c8 d440 0000 40c1 0000 4041
00000260: 0000 40c1 2c9c 1c40 0000 40c1 0000 4041
00000270: 0000 40c1 0000 4041 0000 40c1 b016 bb40
00000280: 0000 40c1 e0fe 4040 0000 40c1 0000 4041
00000290: 0000 40c1 0000 4041 0000 40c1 001a 0d3f
000002a0: 0000 40c1 0000 4041 0000 40c1 08d6 b140
000002b0: 0000 40c1 0000 4041 0000 40c1 0000 4041
000002c0: 0000 40c1 0000 4041 0000 40c1 0000 4041
000002d0: 0000 40c1 0000 4041 0000 40c1 b4bd 2940
000002e0: 0000 40c1 9e95 d940 0000 40c1 0000 4041
000002f0: 0000 40c1 0000 4041 0000 40c1 c0c5 453e
00000300: 0000 40c1 fe8c 3541 0000 40c1 5a4e f440
00000310: 0000 40c1 0000 4041 0000 40c1 b0da 873f
00000320: 0000 40c1 a8fc 6240 0000 40c1 0000 4041
00000330: 0000 40c1 6d40 0941 0000 40c1 0000 4041
00000340: 0000 40c1 0000 4041 0000 40c1 0000 4041
00000350: 0000 40c1 0000 4041 0000 40c1 e866 6a40
00000360: 0000 40c1 8efc 2241 0000 40c1 0000 4041
00000370: 0000 40c1 0000 4041 0000 40c1 dee5 8040
00000380: 0000 40c1 0000 4041 0000 40c1 40c3 6e3e
00000390: 0000 40c1 0000 4041 0000 40c1 6875 f73f
000003a0: 0000 40c1 0000 4041 0000 40c1 b39e 2741
000003b0: 0000 40c1 8607 0f41 0000 40c1 0003 3c41
000003c0: 0000 40c1 6859 0441 0000 40c1 d794 a840
000003d0: 0000 40c1 0000 4041 0000 40c1 0000 4041
000003e0: 0000 40c1 e698 f140 0000 40c1 42a2 2941
000003f0: 0000 40c1 dff7 1d41 0000 40c1 a8c3 ea40
