models/pendulum_output_feedback_small_torque.pth (torch, 138695 bytes, 14 tensors)

observer.fc_net.0.weight f4 [8, 3]
000000 71 cf 34 bb 11 0f 2f 39 6a 8f 9d bc 70 54 d3 39
       -0.0027589465 0.00016694913 -0.019233424 0.00040307967
000010 af fe 05 3a 9f 82 ff bc d8 ea 65 3a f4 89 8e ba
       0.0005111498 -0.031190215 0.0008770651 -0.0010874853
000020 03 df a7 bc 4a 9a 6c ba d5 5b 31 ba 48 d0 f3 bc
       -0.020492082 -0.00090256764 -0.0006765698 -0.029762402
000030 5e f2 74 33 da ac 92 ba cd 48 e6 bc 77 cc df 3a
       5.703111e-08 -0.001119043 -0.028110886 0.0017074485
000040 bb f0 39 ba d2 69 11 bd 20 28 cb 37 62 75 8e 37
       -0.00070930616 -0.03550131 2.421817e-05 1.698238e-05
000050 eb 1c 15 3f 80 e3 a6 b6 b1 05 39 37 4c f4 fa be
       0.5824725 -4.97367e-06 1.1028184e-05 -0.4901451

observer.fc_net.0.bias f4 [8]
000000 a0 c9 df 38 4e 81 6b 3a 81 b6 b0 3a 8b 84 ec 3a
       0.00010671024 0.00089838065 0.0013482125 0.0018044872
000010 22 1c 94 3a 94 c7 33 3a 4c c1 39 3e e8 e8 1b 3e
       0.0011299888 0.00068580476 0.18140143 0.15225565

observer.fc_net.2.weight f4 [2, 8]
000000 98 fd 12 b9 49 68 85 3a 8d 42 8b 3b 91 fc be b9
       -0.00014018116 0.0010178174 0.004249877 -0.000364278
000010 b4 b1 92 3b 56 42 4f ba ac 1f 24 3f 96 d2 0c bf
       0.0044767503 -0.0007906308 0.6411083 -0.5500883
000020 23 54 9a 3c da c7 f1 3c 6c e4 a5 3c 52 b8 f2 3c
       0.018838948 0.029514242 0.020250522 0.029628906
000030 35 c9 e0 3c 5c 8f 12 3d 8e 03 c8 bd 15 3e 2a be
       0.027439693 0.03578125 -0.09766303 -0.16625245

observer.fc_net.2.bias f4 [2]
000000 81 16 05 b6 93 79 42 36
       -1.9831643e-06 2.8979018e-06

controller.net.0.weight f4 [8, 3]
000000 65 57 1b bf e6 3a 88 3a 1b e6 16 bb 9d 75 c5 3e
       -0.6068023 0.001039353 -0.0023025337 0.38566294
000010 b0 94 02 3b 1c 89 7a 38 f8 20 0a b7 cc 5f 84 36
       0.001992505 5.9732338e-05 -8.233117e-06 3.945059e-06
000020 d0 e9 d3 b6 3e 24 9f 3e 13 b6 42 3e 48 37 ec 3a
       -6.3155094e-06 0.31082338 0.19014768 0.0018021846
000030 ce a6 ed 3e c6 d1 5d ba a1 0a 6a 3a ab 3e c7 b6
       0.46416324 -0.00084617396 0.00089279754 -5.9379577e-06
000040 18 2b c4 b6 b2 bf 03 34 4b b9 34 3e 54 f7 e2 3d
       -5.846272e-06 1.2270064e-07 0.17648809 0.1108233
000050 2f fd bc 3a 23 8c 67 3e 13 31 ec b9 86 ee dc b4
       0.0014418716 0.22612052 -0.0004504999 -4.1151742e-07

controller.net.0.bias f4 [8]
000000 5a 1f 57 3e 51 df c2 3d 92 7d 8a b6 37 e0 af 3e
       0.21008053 0.095152505 -4.127339e-06 0.3435075
000010 9d 28 21 3e a6 f2 86 36 49 79 1a 3e 58 0c 9a 3a
       0.15738149 4.021759e-06 0.15085329 0.0011752946

controller.net.2.weight f4 [8, 8]
000000 b0 32 64 bd 07 a8 94 3d 60 58 32 36 e0 cb b7 3e
       -0.055712402 0.07258611 2.6575508e-06 0.35897732
000010 f2 d4 e9 3d e0 58 c1 35 02 2f 80 3d 29 1e 4f 3e
       0.11417569 1.4405487e-06 0.06258966 0.20226349
000020 59 24 6c bc e1 36 53 3e 80 cb b6 b5 ad cf 8c 3e
       -0.014412963 0.20626403 -1.3619283e-06 0.27502194
000030 90 f9 04 3f 87 af 47 36 9b f3 15 3e 6c 8b 27 3a
       0.519433 2.975548e-06 0.1464371 0.000639132
000040 3b 4c 1b bd 1c 99 24 3e 0a d4 2e 36 90 5f d4 3e
       -0.037914496 0.16074032 2.6051443e-06 0.41479158
000050 33 e6 09 3d 58 f5 fd 36 29 54 cf 3d 82 52 78 3d
       0.0336668 7.5685493e-06 0.10123474 0.06062556
000060 66 75 8b 3e 9d f4 e9 bd 2d a5 0b b4 df 52 7b b9
       0.27238005 -0.114236094 -1.3005474e-07 -0.00023968097
000070 fd 26 37 ba da b4 e2 b5 d7 0e 4c bd 29 31 87 36
       -0.00069867057 -1.6890947e-06 -0.04981884 4.0290365e-06
000080 0c f5 60 36 03 dc bb 36 b1 06 b5 36 53 5c bf 35
       3.3521237e-06 5.598647e-06 5.3949993e-06 1.4257479e-06
000090 85 fe 0f b6 0d e3 ab b6 7f f4 00 37 29 d0 87 b6
       -2.145681e-06 -5.1226293e-06 7.686321e-06 -4.0475466e-06
0000a0 81 11 65 34 b6 f2 c0 36 0d 30 e2 b6 d8 d7 25 35
       2.1333655e-07 5.750301e-06 -6.7409187e-06 6.1781384e-07
0000b0 eb 04 a2 36 95 c4 b2 b6 cd a8 bd 36 67 ae 15 b6
       4.8285488e-06 -5.3276985e-06 5.65229e-06 -2.2304246e-06
0000c0 48 18 e5 38 7f a2 6f 3d 31 00 a7 35 12 f7 cc 3e
       0.00010924094 0.058504578 1.2442525e-06 0.4003225
0000d0 2b 5b ef 3e e3 31 10 37 26 94 f4 3c 60 e5 a7 3d
       0.46749243 8.594684e-06 0.029855799 0.08198047
0000e0 5a e0 90 3e ca 41 e2 be 49 a6 56 b6 ea e9 0e ba
       0.28296167 -0.44190818 -3.1985276e-06 -0.0005451726
0000f0 98 36 a4 bd 0d 3e 22 36 cd 80 03 bc 87 6e ba b6
       -0.080182254 2.4176e-06 -0.008026314 -5.556099e-06

controller.net.2.bias f4 [8]
000000 03 a9 64 3a 6b 54 9f 3a 94 70 a4 3a f9 f7 9d 38
       0.00087226945 0.0012155896 0.0012545758 7.532532e-05
000010 d3 0d 1c b6 08 a0 c0 36 18 8c 9d 3a 57 c0 fc 3d
       -2.3253858e-06 5.740676e-06 0.0012019901 0.123413734

controller.net.4.weight f4 [8, 8]
000000 36 cc 7d 3e 13 1b 97 3e ad 1f 18 3e 90 6d a3 be
       0.24784932 0.29512843 0.14855833 -0.31919527
000010 1b 87 4f 36 16 62 1c 37 be aa da 3d 0c 32 d3 bc
       3.0924045e-06 9.321162e-06 0.10677098 -0.0257807
000020 93 fd 91 b6 86 3a 30 b6 63 5a ce 36 b5 61 bc 36
       -4.3508567e-06 -2.6260109e-06 6.149801e-06 5.614211e-06
000030 45 61 16 37 fb 3c 24 b6 6b e0 66 36 65 4c ea b5
       8.963344e-06 -2.44734e-06 3.44033e-06 -1.7456592e-06
000040 41 08 70 3c ad f3 f1 3e 75 0d 6a 3e 38 d3 30 3a
       0.014650405 0.47256222 0.22856696 0.0006745341
000050 a8 bb a8 b6 09 58 cb b6 48 d1 d3 3d 39 c7 a5 be
       -5.028636e-06 -6.06012e-06 0.103426516 -0.32378557
000060 1c 3f 77 3e e2 ce 92 3e 15 24 c6 3e 00 f9 5e be
       0.24145168 0.28673464 0.38699403 -0.21774673
000070 8f 63 99 37 92 a9 04 b6 44 7e dc 3e 3a 60 d4 be
       1.8285382e-05 -1.9768236e-06 0.43065083 -0.41479665
000080 d7 a8 12 37 75 b6 38 34 15 b6 5d b7 19 80 be b6
       8.741589e-06 1.7202713e-07 -1.3215021e-05 -5.677354e-06
000090 09 26 59 b6 04 69 00 37 f0 d5 b3 36 e6 32 1b b7
       -3.235766e-06 7.653845e-06 5.3595213e-06 -9.250571e-06
0000a0 8f a5 94 b9 97 71 89 ba dd d9 44 b9 64 59 53 3b
       -0.0002835211 -0.0010486123 -0.00018773177 0.0032249326
0000b0 d2 8a b3 b6 b3 5b f1 36 de ae ba b9 9a c3 72 3e
       -5.3507765e-06 7.193035e-06 -0.0003560697 0.23707429
0000c0 69 12 2f be 84 59 db b9 b4 cf d9 3c 77 61 98 3e
       -0.17096867 -0.0004183763 0.026588298 0.2976186
0000d0 93 b8 3f 36 10 54 28 b4 0a 16 9d b9 11 7f a0 3e
       2.8568654e-06 -1.5676801e-07 -0.00029961794 0.31346944
0000e0 cd 40 78 36 ec cb af b4 cf 28 7d b5 89 d1 29 b7
       3.6992599e-06 -3.2744663e-07 -9.430923e-07 -1.0121971e-05
0000f0 47 b5 23 36 4b 3d 81 36 3a 04 44 b4 09 18 53 37
       2.439441e-06 3.851635e-06 -1.825546e-07 1.2582176e-05

controller.net.4.bias f4 [8]
000000 47 a0 65 32 c0 db 6d b5 b7 44 9f 3a 3f d0 9c 3a
       1.3365997e-08 -8.860916e-07 0.0012151216 0.0011963918
000010 3a 6c 33 b6 a5 d4 23 3a 34 6c 2f 3a 38 65 0f b7
       -2.6736075e-06 0.0006249643 0.0006691844 -8.547031e-06

controller.net.6.weight f4 [1, 8]
000000 4f b4 0a bf 73 e6 82 b6 1d 2c ef be f5 d9 00 bf
       -0.5418138 -3.9011297e-06 -0.46713343 -0.50332576
000010 03 59 21 35 89 a3 09 3e b0 39 fd 3e 03 ad 58 b6
       6.0106703e-07 0.1344129 0.49458075 -3.2287214e-06

lower_limit f4 [4]
000000 7c d9 a0 bf 7c d9 a0 bf 7c d9 a0 be 7c d9 a0 be
       -1.2566371 -1.2566371 -0.31415927 -0.31415927

upper_limit f4 [4]
000000 7c d9 a0 3f 7c d9 a0 3f 7c d9 a0 3e 7c d9 a0 3e
       1.2566371 1.2566371 0.31415927 0.31415927

x_boundary f4 [8192, 4]
000000 31 95 bb bc 24 35 d2 3d 7c d9 a0 be c8 75 08 3e
       -0.022898288 0.10264042 -0.31415927 0.1332618
000010 e6 7e b4 bc 7a f0 d4 3d 7c d9 a0 be 26 01 08 3e
       -0.022033166 0.1039743 -0.31415927 0.13281688
000020 03 24 b8 bc f7 7b ce 3d 7c d9 a0 be a1 1b 08 3e
       -0.02247811 0.10082238 -0.31415927 0.1329179
000030 3c e9 b8 bc 48 17 dd 3d 7c d9 a0 be 1b 25 08 3e
       -0.022572152 0.10795456 -0.31415927 0.13295405
000040 1b cd a6 bc 85 ac cd 3d 7c d9 a0 be ca 04 09 3e
       -0.020361474 0.10042671 -0.31415927 0.13380733
000050 52 57 b4 3c 75 db ca bd 7c d9 a0 3e d4 bf 08 be
       0.022014294 -0.09905139 0.31415927 -0.13354427
000060 8e 42 bf 3c d5 c4 cf bd 7c d9 a0 3e 64 f4 09 be
       0.023347165 -0.101449646 0.31415927 -0.13472134
000070 f9 f6 a5 3c c7 82 d1 bd 7c d9 a0 3e 00 3d 08 be
       0.020259367 -0.10230022 0.31415927 -0.1330452
000080 ba f4 ab bc 42 c1 c9 3d 7c d9 a0 be 8f 2d 08 3e
       -0.020990718 0.09851314 -0.31415927 0.13298629
000090 64 f4 bb 3c 90 30 cc bd 7c d9 a0 3e fa ac 09 be
       0.022943683 -0.099702 0.31415927 -0.13444892
0000a0 23 a9 c7 3c 3f ad dd bd 7c d9 a0 3e 5b dc 07 be
       0.024372643 -0.1082406 0.31415927 -0.13267653
0000b0 43 35 b2 3c 7c e7 da bd 7c d9 a0 3e f4 b5 0a be
       0.021753913 -0.106886834 0.31415927 -0.13545972
0000c0 21 6e c9 bc 78 d4 d6 3d 7c d9 a0 be 74 0b 08 3e
       -0.024588646 0.10489744 -0.31415927 0.13285619
0000d0 38 04 ba 3c bd f5 c9 bd 7c d9 a0 3e 2c 66 08 be
       0.02270709 -0.09861324 0.31415927 -0.13320225
0000e0 b0 88 c9 bc ce 6d d4 3d 7c d9 a0 be 80 78 09 3e
       -0.02460131 0.10372506 -0.31415927 0.13424873
0000f0 b7 d0 aa 3c 19 75 d6 bd 7c d9 a0 3e 18 8a 07 be
       0.020851476 -0.10471553 0.31415927 -0.13236272
000100 db b9 b9 3c 7a 48 cb bd 7c d9 a0 3e 93 d1 07 be
       0.02267163 -0.09925933 0.31415927 -0.1326354
000110 7a d7 b5 3c 83 7d cb bd 7c d9 a0 3e a6 8c 0a be
       0.022197474 -0.09936049 0.31415927 -0.13530216
000120 f2 30 b5 bc 95 dc d6 3d 7c d9 a0 be 9d 52 0b 3e
       -0.022118066 0.104912914 -0.31415927 0.13605733
000130 b1 15 bb 3c 69 dc c8 bd 7c d9 a0 3e a3 e2 08 be
       0.022837492 -0.09807665 0.31415927 -0.13367705
000140 c5 14 b2 bc ac 54 c6 3d 7c d9 a0 be 24 92 09 3e
       -0.02173842 0.09684119 -0.31415927 0.13434654
000150 4e 1f ab 3c 71 36 c6 bd 7c d9 a0 3e 91 e9 09 be
       0.02088895 -0.096783526 0.31415927 -0.13468005
000160 16 84 9f bc ae 43 d1 3d 7c d9 a0 be d1 fd 08 3e
       -0.019472163 0.10217987 -0.31415927 0.13378073
000170 73 92 ae bc 57 2d c6 3d 7c d9 a0 be ab 31 08 3e
       -0.021310067 0.09676617 -0.31415927 0.13300197
000180 10 17 cf bc b0 5a d9 3d 7c d9 a0 be 1b 59 09 3e
       -0.025279552 0.106130004 -0.31415927 0.13412897
000190 58 14 b6 bc f8 54 c6 3d 7c d9 a0 be ac 0e 09 3e
       -0.022226498 0.09684175 -0.31415927 0.13384503
0001a0 55 7c af 3c 0b 88 c6 bd 7c d9 a0 3e 8b ec 07 be
       0.02142159 -0.09693917 0.31415927 -0.13273828
0001b0 63 27 c0 3c 93 4d ce bd 7c d9 a0 3e a4 6c 07 be
       0.023456281 -0.1007339 0.31415927 -0.13225037
0001c0 f3 e9 cb 3c 06 34 d4 bd 7c d9 a0 3e ff 94 09 be
       0.02489183 -0.10361485 0.31415927 -0.13435744
0001d0 24 92 b9 3c 1c 60 e1 bd 7c d9 a0 3e 21 ac 0a be
       0.022652693 -0.110046595 0.31415927 -0.13542224
0001e0 0d 69 ab bc 8a 52 c5 3d 7c d9 a0 be 29 fc 09 3e
       -0.020924116 0.09634884 -0.31415927 0.13475098
0001f0 e7 b1 b1 bc 2d d8 ca 3d 7c d9 a0 be 64 14 0b 3e
       -0.021691276 0.099045135 -0.31415927 0.13581997
000200 43 16 b3 3c 65 fc cd bd 7c d9 a0 3e 16 b9 06 be
       0.021861201 -0.10057906 0.31415927 -0.13156542
000210 ac 2a b2 3c a0 09 e3 bd 7c d9 a0 3e cf 50 09 be
       0.021748863 -0.1108582 0.31415927 -0.13409732
000220 ae a2 b0 3c 36 b0 c3 bd 7c d9 a0 3e 07 34 09 be
       0.021561947 -0.09555094 0.31415927 -0.13398753
000230 35 84 b3 bc cd fb d9 3d 7c d9 a0 be d6 86 0b 3e
       -0.021913627 0.1064373 -0.31415927 0.13625655
000240 18 12 b1 3c 9c fe c2 bd 7c d9 a0 3e d0 0b 09 be
       0.021615073 -0.09521219 0.31415927 -0.13383412
000250 6c f4 b5 bc 96 92 e5 3d 7c d9 a0 be 8f 02 09 3e
       -0.022211276 0.112096 -0.31415927 0.13379882
000260 c4 8b b9 3c 80 25 c6 bd 7c d9 a0 3e 50 d0 09 be
       0.022649653 -0.09675121 0.31415927 -0.13458371
000270 07 cc a9 bc 03 df c1 3d 7c d9 a0 be 57 45 09 3e
       -0.02072717 0.09466364 -0.31415927 0.13405357
000280 25 b2 c5 bc 95 8c d2 3d 7c d9 a0 be a1 08 0b 3e
       -0.024132797 0.1028072 -0.31415927 0.1357751
000290 05 1f d4 bc e6 55 e2 3d 7c d9 a0 be 50 ab 09 3e
       -0.025893698 0.1105154 -0.31415927 0.13444257
0002a0 f0 87 ac 3c 5d e5 c1 bd 7c d9 a0 3e d2 b8 09 be
       0.021060914 -0.09467576 0.31415927 -0.1344941
0002b0 3b ff af 3c 17 54 c4 bd 7c d9 a0 3e 85 87 0a be
       0.021484008 -0.09586351 0.31415927 -0.13528259
0002c0 68 e6 a0 3c 2e 3c c3 bd 7c d9 a0 3e 1a 04 08 be
       0.019641116 -0.09532963 0.31415927 -0.13282815
0002d0 0c 2a cc 3c c1 13 d6 bd 7c d9 a0 3e d1 0a 07 be
       0.024922393 -0.104529865 0.31415927 -0.1318772
0002e0 73 ef bd bc 28 9d e7 3d 7c d9 a0 be 40 f0 07 3e
       -0.023185467 0.11309272 -0.31415927 0.13275242
0002f0 33 c0 d3 3c 21 ca e1 bd 7c d9 a0 3e 38 2d 0a be
       0.025848484 -0.11024881 0.31415927 -0.13493812
000300 5e 87 b2 bc b5 bc c1 3d 7c d9 a0 be 1a 2a 09 3e
       -0.021793064 0.09459821 -0.31415927 0.13394967
000310 c8 61 cf 3c bb 31 d2 bd 7c d9 a0 3e 70 23 08 be
       0.02531518 -0.102633916 0.31415927 -0.13294768
000320 4b 47 a7 3c 11 7b df bd 7c d9 a0 3e d8 e9 09 be
       0.020419737 -0.10912145 0.31415927 -0.1346811
000330 ec 2b b3 3c b8 07 c3 bd 7c d9 a0 3e a8 d0 07 be
       0.02187153 -0.095229566 0.31415927 -0.1326319
000340 24 75 9c bc 65 62 c1 3d 7c d9 a0 be 1a 99 09 3e
       -0.019098826 0.094425954 -0.31415927 0.1343731
000350 3c 61 c7 bc b4 2e ca 3d 7c d9 a0 be 48 1d 09 3e
       -0.024338357 0.09872189 -0.31415927 0.13390076
000360 9c 40 bb bc 0b cb d2 3d 7c d9 a0 be 39 02 06 3e
       -0.022857957 0.102926336 -0.31415927 0.13086785
000370 0e d5 bd bc d5 c7 e9 3d 7c d9 a0 be 21 d1 09 3e
       -0.023172881 0.11415068 -0.31415927 0.13458683
000380 f7 b5 ca 3c 59 48 e9 bd 7c d9 a0 3e cd c8 07 be
       0.02474497 -0.11390752 0.31415927 -0.13260193
000390 e6 96 b5 3c 94 62 c7 bd 7c d9 a0 3e fb 3f 0b be
       0.02216668 -0.09735599 0.31415927 -0.13598625
0003a0 5b 6d cc bc d7 1a cd 3d 7c d9 a0 be 25 4c 09 3e
       -0.024954489 0.10014885 -0.31415927 0.13407953
0003b0 b8 95 a0 3c 38 af dc bd 7c d9 a0 3e ca 1d 09 be
       0.019602641 -0.10775608 0.31415927 -0.1339027
0003c0 10 ec a2 3c a2 35 cb bd 7c d9 a0 3e 77 8d 06 be
       0.019887954 -0.09922339 0.31415927 -0.13139902
0003d0 29 68 ca bc 73 a8 d3 3d 7c d9 a0 be 3f a1 06 3e
       -0.02470787 0.103348635 -0.31415927 0.13147448
0003e0 fe 1a a7 3c f5 a3 c4 bd 7c d9 a0 3e 3f d1 06 be
       0.020398613 -0.09601585 0.31415927 -0.13165759
0003f0 26 6e d7 bc 3d 4d e1 3d 7c d9 a0 be 46 b1 07 3e
       -0.02629764 0.1100106 -0.31415927 0.13251218
