models/pendulum_output_feedback_nn.pth (torch, 13396 bytes, 25 tensors)

observer.fc_net.0.weight f4 [16, 3]
0	0xbccd0f87	-0.025031818
1	0x3c18a11d	0.009315756
2	0xbf024a7c	-0.50894904
3	0xbc41dd19	-0.011832499
4	0xbca9a5e6	-0.02070899
5	0x3da84276	0.082158014
6	0xbc1e5957	-0.009664855
7	0xbce0b21a	-0.027428675
8	0x3daacb68	0.08339578
9	0xbc3c4825	-0.01149181
10	0xbcc67f10	-0.02423051
11	0x3db34246	0.08752875
12	0x3de1cab2	0.11024989
13	0xbbbc607e	-0.0057488075
14	0xbe83e356	-0.2575938
15	0x3cc50c2d	0.024053657
16	0x3c9b141b	0.018930485
17	0x3e3b5c2f	0.18296884
18	0xba0ced94	-0.0005375978
19	0xbc1cbded	-0.009566766
20	0x3e0d8c63	0.13823085
21	0xbde61cf7	-0.11235993
22	0xbc29d1b5	-0.010364939
23	0xbe80e8c9	-0.251776
24	0x3dce89b4	0.100848585
25	0x3d707191	0.058702055
26	0x3ecf3d03	0.40476236
27	0xbda909df	-0.08253836
28	0xbbae9827	-0.0053281966
29	0x3e8e9f32	0.2785583
30	0xbddbf467	-0.107399754
31	0xbd9896d4	-0.07450643
32	0x3f7a796e	0.97841537
33	0xbb9f689a	-0.0048647644
34	0xbd052b2b	-0.03251187
35	0x3d5c238a	0.05374483
36	0xbc8bff16	-0.017089408
37	0xbc847b4f	-0.01617208
38	0x3dfb6392	0.12274851
39	0xbd57d1df	-0.052690383
40	0x3ca50dcb	0.020148179
41	0x3e505db6	0.20348248
42	0x3c333e99	0.010940217
43	0xbb924c59	-0.0044646678
44	0x3e0cb4c6	0.13740835
45	0xbd2d8b6e	-0.0423693
46	0xbb9953c5	-0.0046791756
47	0x3e06e0de	0.13171718

observer.fc_net.0.bias f4 [16]
0	0x3eae3c68	0.3403046
1	0x3d8dd452	0.069252625
2	0x3d94658d	0.07245932
3	0x3d8c1b79	0.068411775
4	0x3db13e14	0.086544186
5	0x3d1c28a0	0.03812468
6	0x3dbb063f	0.09132051
7	0x3db92446	0.09040122
8	0xbdcdafb3	-0.100432776
9	0x3d9b6464	0.07587507
10	0xbe0f1f02	-0.13976672
11	0x3d568c76	0.052380048
12	0x3cdbbcfb	0.026823511
13	0xbdd4748d	-0.10373793
14	0x3dabd4c9	0.08390195
15	0x3d905cc9	0.07048947

observer.fc_net.2.weight f4 [16, 16]
0	0x3e1e94cf	0.15486453
1	0xbcbd5014	-0.023109473
2	0xba898071	-0.0010490549
3	0xbcd661cf	-0.026169686
4	0x3d0b2eaf	0.033980068
5	0xbd1372ff	-0.03599834
6	0xbdc1f86f	-0.09471213
7	0xbd0a3cd8	-0.03374943
8	0x3d4d48d5	0.050118286
9	0x3de50ac2	0.111836925
10	0xbd1f6f73	-0.038924646
11	0x38be056a	9.0609145e-05
12	0x3aa184af	0.0012322868
13	0xbe11d2d3	-0.1424058
14	0xbdb5da71	-0.08879555
15	0x3e05399e	0.1301026
16	0xbe5287c3	-0.20559601
17	0xbcbbc922	-0.022923056
18	0xbcec7350	-0.028863579
19	0xbcbdd2bd	-0.023171777
20	0x3dbc2bbf	0.091880314
21	0x3c59a0d0	0.01328297
22	0xbd3cf25b	-0.046129566
23	0xbdd79b9b	-0.10527726
24	0x3f4e234f	0.80522627
25	0xbd4d7364	-0.050158873
26	0x3f38eb82	0.72234356
27	0xbb1a1156	-0.0023508868
28	0xbcbc019e	-0.02294999
29	0xbd10c6de	-0.035345905
30	0xbd16e276	-0.036837064
31	0xbdcfc10b	-0.10144242
32	0xb7203d1f	-9.550974e-06
33	0xb63379c1	-2.6743949e-06
34	0xb52df389	-6.480191e-07
35	0xb7c1906f	-2.307465e-05
36	0xb7e374ab	-2.7114836e-05
37	0xb7eb5f36	-2.805852e-05
38	0xb6115d72	-2.1661076e-06
39	0x36c2c495	5.8045357e-06
40	0xb6e3b9ea	-6.7867704e-06
41	0xb6c165ff	-5.763722e-06
42	0x37285d98	1.0035372e-05
43	0xb688b84a	-4.07457e-06
44	0xb6ae163b	-5.188192e-06
45	0x3504d206	4.9479456e-07
46	0x3728088e	1.0015572e-05
47	0x36007273	1.9140105e-06
48	0xb6963b8a	-4.4772796e-06
49	0x358cfade	1.0503825e-06
50	0x369fb1a4	4.7592494e-06
51	0x36db3178	6.5324675e-06
52	0x3684e29f	3.9602887e-06
53	0x35c5331f	1.4692522e-06
54	0xb71530d6	-8.892463e-06
55	0xb7e43889	-2.7206044e-05
56	0x36e52eae	6.830166e-06
57	0xb783becf	-1.570527e-05
58	0xb7a50dc8	-1.967595e-05
59	0x368abe2a	4.1348585e-06
60	0xb7956e77	-1.7813623e-05
61	0xb625fb6b	-2.473326e-06
62	0x36af1b19	5.218561e-06
63	0xb70fd696	-8.573426e-06
64	0x3e29dc68	0.16587985
65	0x3d5f9cf2	0.054593034
66	0x3cc72d90	0.024313718
67	0x3d6f2a55	0.05838998
68	0x3e01b237	0.1266564
69	0x3de44093	0.11145129
70	0x3dd8c7f1	0.10585011
71	0x3e4d609b	0.20056383
72	0xbe088ced	-0.13335009
73	0xbdf1221b	-0.11774083
74	0x3d7f56e4	0.062338725
75	0x3c44e9fb	0.012018676
76	0x3d65c85a	0.056099273
77	0x3e9c6f11	0.30553487
78	0x3dd1a7e4	0.10237101
79	0xbda57d6e	-0.080805644
80	0x3e2ca476	0.16859612
81	0x382662d5	3.966953e-05
82	0xba2b421b	-0.0006532983
83	0x3aa2150c	0.0012365892
84	0x3b9559f9	0.0045578447
85	0x3c32b197	0.0109065985
86	0xbd670766	-0.05640354
87	0x3d257a57	0.040399875
88	0x3cb1a462	0.02168483
89	0x3df133a8	0.11777431
90	0x3b82333f	0.003973394
91	0x3cb2ee43	0.021842128
92	0x3d23cef0	0.039992273
93	0xbdfed948	-0.12443787
94	0xbd66760f	-0.056264933
95	0x3dbe84fe	0.0930271
96	0x3e7851cd	0.24249955
97	0x3d86e19a	0.06585999
98	0x3d1362d3	0.035982918
99	0x3d8df127	0.06930762
100	0x3ebf0c70	0.37314177
101	0x3df5a777	0.11994832
102	0x3ddd7358	0.10813016
103	0x3ed80412	0.42190605
104	0xbd06f7f0	-0.032951295
105	0xbdef0243	-0.11670353
106	0x3da13910	0.07872212
107	0x3cd7b4a0	0.026331246
108	0x3d8d9962	0.06914021
109	0x3ea59fee	0.3234858
110	0x3dd73eaa	0.10509999
111	0xbdad7d9f	-0.08471226
112	0x3dd871ad	0.10568557
113	0xbad3c8bf	-0.001615785
114	0xb9f50584	-0.0004673415
115	0xbac42cbb	-0.0014966944
116	0xbd1f47fb	-0.038887005
117	0xbcfe0693	-0.031008994
118	0xbdae704b	-0.08517512
119	0xbdea086a	-0.11427386
120	0x3c983702	0.018580917
121	0x3e1794b9	0.14802827
122	0x3d3ac9c2	0.045602567
123	0x3ce6a357	0.028154058
124	0x3c8af656	0.016963165
125	0xbe7af68a	-0.2450811
126	0xbdae61fc	-0.08514783
127	0x3e10ea77	0.14151941
128	0x3e8107e6	0.2520134
129	0x3d5263dd	0.05136477
130	0x3cdaf297	0.026727004
131	0x3d699467	0.057026293
132	0x3dd617ac	0.10453734
133	0x3ddb5d2e	0.10711132
134	0x3d4ae9c9	0.04953936
135	0x3e3b6c96	0.18303141
136	0xbd0cd4b0	-0.034382522
137	0xbc391ed0	-0.01129885
138	0x3d58f635	0.052969176
139	0x3d0c3e84	0.034239307
140	0x3db2d114	0.08731285
141	0x3e827866	0.25482482
142	0x3d3fdb09	0.046839748
143	0xb9e1aa76	-0.00043042348
144	0x3e199566	0.14998397
145	0x3d5ae0b3	0.053436946
146	0x3cd06813	0.025440251
147	0x3d6fe17d	0.05856465
148	0x3df7753d	0.12082908
149	0x3dec9bfa	0.11553188
150	0x3d94baf4	0.07262221
151	0x3e3e7553	0.18599443
152	0xbcaaa3f0	-0.020830125
153	0xbd2feaca	-0.04294852
154	0x3d653992	0.055963106
155	0x3cb2e6b6	0.021838527
156	0x3d9817fe	0.07426451
157	0x3ea08716	0.31353062
158	0x3d8e5f85	0.06951813
159	0xbcbf6d6e	-0.02336761
160	0x3b00dbee	0.0019662338
161	0xbd19fb96	-0.037593447
162	0xbb70ec33	-0.003676188
163	0xbd25fce0	-0.040524364
164	0xbdd80207	-0.10547262
165	0xbdcacd65	-0.09902457
166	0xbdca2ea4	-0.09872177
167	0xbe1c034e	-0.15235636
168	0x39bf4fcc	0.00036489812
169	0x3df01277	0.11722272
170	0xbcdc2d39	-0.026877033
171	0x3b3eff5b	0.0029143903
172	0xbd1f10e0	-0.038834453
173	0xbe95328b	-0.29140124
174	0xbdc4b168	-0.0960415
175	0x3dd446a5	0.10365037
176	0xbdc0e5be	-0.0941882
177	0x3db379b2	0.08763446
178	0x3ddc2688	0.10749537
179	0x3dbc282f	0.09187352
180	0xbe0a2977	-0.1349238
181	0x3de775e9	0.113017865
182	0x3dd342ef	0.10315501
183	0xbdd66dbb	-0.10470148
184	0x3ce3a2ce	0.027787592
185	0x3cfbea7a	0.030751456
186	0x3d7b94a1	0.06142104
187	0x3dbc3d14	0.09191337
188	0x3db8503b	0.08999678
189	0xbd876f7b	-0.0661306
190	0x3dd5a94c	0.104326814
191	0x3d1601d7	0.03662285
192	0x3d83b54c	0.06431064
193	0x3d44a8f2	0.04801268
194	0x3c93c8e4	0.018040128
195	0x3d53792e	0.051629238
196	0x3df9f484	0.12204841
197	0x3dd2d06a	0.10293658
198	0x3de11188	0.10989672
199	0x3e3f8b79	0.18705548
200	0x3a9eb3fa	0.001210808
201	0xbe046ce9	-0.12932171
202	0x3d290e59	0.04127345
203	0x3b9857b7	0.0046491283
204	0x3d2cc224	0.042177334
205	0x3e9130b6	0.28357476
206	0x3dda3754	0.10655084
207	0xbdb3c448	-0.08777672
208	0xbd848049	-0.06469781
209	0x3d698bf8	0.05701825
210	0x3cfd54fc	0.030924313
211	0x3d6d7fd2	0.057983227
212	0x3dcb0079	0.099121995
213	0x3dace924	0.084429055
214	0x3dfa6fd7	0.12228363
215	0x3e3452e2	0.17609742
216	0x3b968186	0.004593077
217	0xbe90b04d	-0.28259507
218	0x3e397bf8	0.18113697
219	0x3caaf3f9	0.020868288
220	0x3cee2486	0.02907015
221	0x3ddad1e1	0.106845625
222	0x3dfcd741	0.12345744
223	0xbdc8be8f	-0.09801971
224	0xbe36601a	-0.17810097
225	0xbd515f13	-0.05111606
226	0xbce262e7	-0.027635051
227	0xbd641e30	-0.05569285
228	0xbdd38aef	-0.10329234
229	0xbdde059b	-0.10840913
230	0xbd37b422	-0.044849522
231	0xbe20fd24	-0.15721565
232	0x3ddba60a	0.10725029
233	0x3e042f20	0.12908602
234	0x3eaf3d28	0.34226346
235	0xbd073f65	-0.033019442
236	0xbdac577b	-0.08415123
237	0xbe9924e9	-0.29910973
238	0xbd2d86e9	-0.04236499
239	0x3c6f59bf	0.0146087995
240	0xb6aba07e	-5.114881e-06
241	0x36e1e925	6.732664e-06
242	0xb7944239	-1.7673812e-05
243	0x370a7390	8.2523475e-06
244	0x374a3189	1.2051672e-05
245	0xb71a0625	-9.180546e-06
246	0x353b96f3	6.988259e-07
247	0xb4fa15fe	-4.658213e-07
248	0x37c521ec	2.3500026e-05
249	0xb6564b06	-3.1932154e-06
250	0xb699542f	-4.5695556e-06
251	0xb65b87aa	-3.271251e-06
252	0xb59e98c6	-1.181638e-06
253	0x37f7197c	2.9456562e-05
254	0x35420858	7.2282774e-07
255	0xb7bf8035	-2.2828675e-05

observer.fc_net.2.bias f4 [16]
0	0x3ce6ccf4	0.028173901
1	0xbda1dc2e	-0.07903324
2	0x377596e6	1.4638272e-05
3	0xb74ec83a	-1.2325176e-05
4	0xb586e34d	-1.0049931e-06
5	0xba9d32fe	-0.0011993346
6	0x3c22068e	0.009889258
7	0x3c8e9eca	0.0174097
8	0x347e8420	2.370366e-07
9	0xb6beab3a	-5.6823746e-06
10	0x3d9d9bce	0.07695733
11	0x3cb26c94	0.02178029
12	0x3b9f580a	0.00486279
13	0x3d94fcc1	0.072747715
14	0x3e6b9695	0.23006661
15	0xb7c83a14	-2.3868903e-05

observer.fc_net.4.weight f4 [8, 16]
0	0xbdf4b03f	-0.11947679
1	0xbcb4356c	-0.02199813
2	0x36678a71	3.4502266e-06
3	0xb6b55f68	-5.405327e-06
4	0x3c276d25	0.010218893
5	0xbdbbd257	-0.091709785
6	0x3c8e4ecf	0.017371563
7	0xbe2a28d4	-0.16617137
8	0xbc5919f3	-0.013250816
9	0x3ba39db9	0.0049931672
10	0xbcc0979f	-0.023509799
11	0xbe1d3b21	-0.15354587
12	0x3d3deb5b	0.04636703
13	0x3e2dca3d	0.16971679
14	0x3c936307	0.017991556
15	0x366c8fee	3.5250519e-06
16	0xbe23b8c1	-0.15988447
17	0x3ec31d9e	0.38108534
18	0x37993c5e	1.8267132e-05
19	0xb71883e2	-9.090612e-06
20	0xbd0c76ae	-0.03429287
21	0xbdfea149	-0.124331065
22	0xbb51a4a3	-0.0031989
23	0xbe25e3c0	-0.16200161
24	0xbce966d4	-0.028491415
25	0xbcad131a	-0.021127272
26	0xb9df8b77	-0.00042637784
27	0xbe410574	-0.18849736
28	0xb983a859	-0.00025111696
29	0x3e5c4fb7	0.21514784
30	0x3e80cb20	0.25154972
31	0x361a43e1	2.29873e-06
32	0x3e35c657	0.17751442
33	0x3ccebe68	0.025237277
34	0xb704f76d	-7.925421e-06
35	0xb5a7a1ca	-1.2489556e-06
36	0x3cb76f03	0.022391802
37	0x3e187f1d	0.1489224
38	0x3cd3ae44	0.025839932
39	0x3e5aaef5	0.21355803
40	0x3d7b411d	0.061341394
41	0x3cb3852a	0.021914084
42	0x3d505eb1	0.050871555
43	0x3e2d5feb	0.16931121
44	0xbc0e99de	-0.008703677
45	0xbe16f382	-0.14741328
46	0xbc4a1d6e	-0.012336118
47	0xb7065bba	-8.008379e-06
48	0xbe50283b	-0.20327847
49	0xbdf2012d	-0.118166305
50	0xb70e2de2	-8.4745425e-06
51	0x327166cb	1.4051419e-08
52	0x3e82285c	0.25421417
53	0xbe0efc5c	-0.13963455
54	0x3e933109	0.28748348
55	0xbea5eb81	-0.32406238
56	0x3e064986	0.13113984
57	0x3e4501a7	0.19238912
58	0xbe9cae59	-0.30601767
59	0xbe1c9779	-0.15292157
60	0x3e70f555	0.23531087
61	0x3e9cd55c	0.3063153
62	0xbe92c02f	-0.2866225
63	0x36b53a78	5.401027e-06
64	0xbdc11f97	-0.094298534
65	0x3f3b64e5	0.7320083
66	0x3787ddab	1.6196476e-05
67	0x37737849	1.4511935e-05
68	0xbd0dc208	-0.03460887
69	0xbdf6b821	-0.120468386
70	0xbc5ea360	-0.013588756
71	0xbdbe5f6b	-0.09295543
72	0xbe11cd70	-0.14238524
73	0xbe1e2920	-0.15445375
74	0x3d2f6e3a	0.04282973
75	0xbe21393f	-0.15744494
76	0xbcef73ce	-0.029230025
77	0x3e77b210	0.24189019
78	0x3e712635	0.23549731
79	0x37fd99ef	3.0231631e-05
80	0xbd48b319	-0.048998926
81	0xbef5a98c	-0.47980917
82	0xb68e17eb	-4.234714e-06
83	0x35b70699	1.3636483e-06
84	0x3c9fe96f	0.01952049
85	0x3e263fad	0.16235228
86	0x3e813279	0.2523382
87	0xbdc8fa47	-0.098133616
88	0x3e167d2c	0.14696187
89	0x3d12c070	0.035828054
90	0xbd4def9b	-0.050277334
91	0x3d43ef2b	0.04783551
92	0x3d26da32	0.04073543
93	0x3e0e1ea0	0.1387887
94	0xbd0f7152	-0.03502018
95	0xb5850f6a	-9.913758e-07
96	0xbe1857b7	-0.1487721
97	0xbd08bae1	-0.033381347
98	0x36cbfd3f	6.079353e-06
99	0x37cc1b4a	2.4331403e-05
100	0x3b321aa4	0.0027176524
101	0xbdcdca33	-0.10048332
102	0x3be42f5a	0.0069636526
103	0xbe48d7ea	-0.19613615
104	0xbcde7859	-0.027156996
105	0x39de4593	0.00042394976
106	0xbba029eb	-0.0048878095
107	0xbe308661	-0.17238761
108	0x3d1865c1	0.037206415
109	0x3e44c953	0.19217424
110	0x3d1ffcde	0.039059512
111	0x37488138	1.1951015e-05
112	0x3e4af04e	0.19818231
113	0x3cabd4bc	0.020975463
114	0x34d8a026	4.0349659e-07
115	0x35234425	6.0821395e-07
116	0x3d006392	0.031344958
117	0x3e212012	0.1573489
118	0x3d168a23	0.03675283
119	0x3e6fb90a	0.2341043
120	0x3d90ebae	0.07076202
121	0x3cf6eb95	0.030141631
122	0x3d2761b6	0.04086467
123	0x3e2f5a5a	0.1712431
124	0xbbb75cf1	-0.0055957963
125	0xbe2f0dd3	-0.17095117
126	0xbcbd5e23	-0.023116177
127	0xb79fe1fa	-1.9059506e-05

observer.fc_net.4.bias f4 [8]
0	0x3ca2b4cc	0.019861601
1	0x3d29350c	0.041310355
2	0x37e36bf9	2.7110787e-05
3	0x3db078bf	0.086167805
4	0x3dcb9f47	0.09942489
5	0x3e2307ae	0.15920898
6	0x3d004815	0.031318743
7	0x371cc831	9.344935e-06

observer.fc_net.6.weight f4 [2, 8]
0	0x3e4b52c3	0.1985579
1	0x3ed2abb6	0.4114663
2	0xbe2d494b	-0.1692249
3	0x3d853619	0.06504459
4	0x3f0300f0	0.51173306
5	0xbe8ecbdd	-0.2788991
6	0x3e489a91	0.19590212
7	0xbe28f7fb	-0.16500847
8	0xbe459fae	-0.19299194
9	0xbcb50133	-0.022095298
10	0x3e07a19d	0.13245244
11	0xbef54707	-0.47905752
12	0x3daa2459	0.08307714
13	0xbe3244c2	-0.17409042
14	0xbe4338d4	-0.19064647
15	0x3df622f8	0.120183885

observer.fc_net.6.bias f4 [2]
0	0x37c1d59c	2.3106862e-05
1	0xb78a31b4	-1.6474027e-05

controller.net.0.weight f4 [8, 3]
0	0xbf0cfdf0	-0.5507498
1	0xbc9ec997	-0.019383235
2	0xbea4a863	-0.3215972
3	0x3ea95d1a	0.33078843
4	0x3e26c262	0.16285089
5	0x3f33110f	0.69947904
6	0x3e5c1033	0.21490555
7	0xbdc09bfb	-0.09404751
8	0x3ca023a6	0.019548248
9	0x3eaf3e33	0.34227142
10	0x3e12fab8	0.14353454
11	0x3eb54e1b	0.35411152
12	0x3eda7538	0.42667556
13	0x3af58f51	0.0018734728
14	0xba1e54ad	-0.00060398394
15	0xb6d73134	-6.4132273e-06
16	0xb7517e59	-1.2486788e-05
17	0x3728dea3	1.0065417e-05
18	0x3e38c4c6	0.18043813
19	0x3ec61f77	0.3869588
20	0x3cc978d8	0.024593756
21	0x3eb91481	0.36148456
22	0x3d5c362f	0.05376261
23	0x3d6e2aee	0.05814641

controller.net.0.bias f4 [8]
0	0x3ea3bebb	0.31981453
1	0x3eea0df7	0.4571378
2	0x3de9aed6	0.114103004
3	0x3eeae538	0.45878005
4	0x3e8ec0a4	0.27881348
5	0x35e581ab	1.7099568e-06
6	0x3e288c69	0.16459812
7	0x3e080ebe	0.13286874

controller.net.2.weight f4 [8, 8]
0	0xbd373723	-0.044730317
1	0x3dda16a2	0.10648848
2	0xbb5ea849	-0.0033974817
3	0x3ec9ae37	0.39390728
4	0x3e235321	0.1594968
5	0xb73d132d	-1.1269743e-05
6	0xbd2e26b8	-0.042517394
7	0x3eb58945	0.3545629
8	0xbd87b41c	-0.0662615
9	0x3e61af8e	0.22039625
10	0x3c74a87a	0.014932746
11	0x3e8f6655	0.2800776
12	0x3f03004c	0.5117233
13	0xb646330e	-2.9534017e-06
14	0xbd813a0c	-0.063099
15	0x3d813648	0.063091815
16	0xbd0eb17b	-0.034837227
17	0x3e3f8f2b	0.18706958
18	0x3ca5a656	0.020220917
19	0x3eccfcb1	0.40036538
20	0x3d26dd23	0.040738236
21	0xb5f75d3a	-1.8430067e-06
22	0xbe3641a4	-0.17798477
23	0x3e1b5f74	0.15173131
24	0x3ea207d6	0.31646603
25	0xbe66f232	-0.22553328
26	0x3a9d856d	0.0012017913
27	0x3d8b9162	0.06814839
28	0x3e58b883	0.21164136
29	0x3799c33e	1.8329938e-05
30	0x3d8750b9	0.066071935
31	0xbb27db2b	-0.0025612812
32	0x36cccb12	6.1033143e-06
33	0x368799fb	4.041239e-06
34	0x365dea13	3.3067815e-06
35	0x371a4bcf	9.196766e-06
36	0x358bc8bd	1.041473e-06
37	0x36087a0b	2.0336618e-06
38	0xb758bdbb	-1.2918778e-05
39	0xb3c344d9	-9.0929184e-08
40	0x366ef1b7	3.560546e-06
41	0x37b30524	2.1340857e-05
42	0xb788b54e	-1.629689e-05
43	0xb659782d	-3.2405471e-06
44	0x368996d9	4.100479e-06
45	0xb7c72f95	-2.3744806e-05
46	0xb545e729	-7.37246e-07
47	0xb76e9f14	-1.4222944e-05
48	0xbd576692	-0.052588053
49	0x3d27ebee	0.040996484
50	0xbb53e870	-0.0032334588
51	0x3edb111e	0.42786497
52	0x3ed7ae27	0.42125055
53	0xb6de031e	-6.6164785e-06
54	0xbe124a2f	-0.14286111
55	0x3e31e53a	0.17372599
56	0x3ebe8f4e	0.37218708
57	0xbeb679ac	-0.35639703
58	0x3ea7d6f4	0.32781184
59	0x3d966248	0.073429644
60	0xbc9d3669	-0.019190984
61	0xb57456c9	-9.102337e-07
62	0x3e0e0429	0.13868774
63	0x3e788ab5	0.24271663

controller.net.2.bias f4 [8]
0	0x3d31c25e	0.043398254
1	0x3dc1816d	0.09448514
2	0x3e409544	0.1880694
3	0x3c6a04d5	0.014283379
4	0xb6ea5b54	-6.9843754e-06
5	0xb730dd69	-1.0541969e-05
6	0x3d017c7c	0.03161286
7	0x3d6325fc	0.055456147

controller.net.4.weight f4 [8, 8]
0	0x3e88829f	0.26662156
1	0x3e969b61	0.2941542
2	0x3e49a68a	0.19692436
3	0xbeacef4e	-0.33776325
4	0xb7e43968	-2.720645e-05
5	0xb7049ad5	-7.903863e-06
6	0x3dda773c	0.106672734
7	0xbccb21a6	-0.024796318
8	0x36933dad	4.3881214e-06
9	0xb68d288f	-4.206849e-06
10	0x37b7239f	2.1831887e-05
11	0x373cb1b5	1.1247049e-05
12	0xb77fa3d9	-1.5237333e-05
13	0xb7d95bf2	-2.5911231e-05
14	0x370583ac	7.958075e-06
15	0xb6e8b051	-6.9346647e-06
16	0x3ce91e01	0.02845669
17	0x3ef327c5	0.4749128
18	0x3e8fc8dc	0.2808293
19	0xbcaaf0ee	-0.020866837
20	0x37dbb118	2.61893e-05
21	0x36f02982	7.1573895e-06
22	0x3de05e9e	0.10955547
23	0xbeaf6ddb	-0.342635
24	0x3e878c37	0.26474163
25	0x3e94123d	0.28920165
26	0x3edde681	0.43339923
27	0xbeb74aeb	-0.35799345
28	0x3766818d	1.3739232e-05
29	0x34433275	1.8179146e-07
30	0x3ee220e0	0.44165707
31	0xbef69125	-0.4815761
32	0x36a5b9bf	4.939007e-06
33	0xb721c473	-9.642087e-06
34	0xb6de3334	-6.6220764e-06
35	0xb6c46e73	-5.854113e-06
36	0x3739ce2f	1.1074865e-05
37	0x3634eba2	2.6959246e-06
38	0x3425d41b	1.5443986e-07
39	0x36c011af	5.7241045e-06
40	0x3bb8c7c1	0.005639047
41	0x3bd6e40f	0.0065579484
42	0x3c07207f	0.008247494
43	0x3c188fe4	0.00931165
44	0x370ebe62	8.5081865e-06
45	0xb7c26677	-2.3174316e-05
46	0x3bbc30fa	0.005743143
47	0x3ea4b31c	0.321679
48	0xbe9363d9	-0.28787115
49	0xbc8ae33f	-0.016954063
50	0x3e937512	0.28800255
51	0x3ec9d55f	0.39420602
52	0xb7ac5a72	-2.0546115e-05
53	0xb685d5d3	-3.9886013e-06
54	0xba47a77b	-0.0007616204
55	0x3ea96539	0.3308504
56	0xb610ad84	-2.1558672e-06
57	0xb738b9c6	-1.1010508e-05
58	0xb7c0e86c	-2.2996413e-05
59	0xb77f105c	-1.5202993e-05
60	0xb765bcea	-1.3693449e-05
61	0x34c0ff2e	3.5948455e-07
62	0x36ec3f7e	7.0407395e-06
63	0xb6e29026	-6.752106e-06

controller.net.4.bias f4 [8]
0	0x3d6e6aaf	0.05820721
1	0xb6e2a766	-6.7548126e-06
2	0x3d923975	0.07139865
3	0x3d238ecc	0.039931104
4	0x37831dcd	1.5630294e-05
5	0xbceb7da0	-0.028746426
6	0x3ce3f650	0.027827412
7	0x34c66016	3.6950286e-07

controller.net.6.weight f4 [1, 8]
0	0xbf0f4817	-0.55969375
1	0xb7899f5c	-1.640588e-05
2	0xbef519a3	-0.47871122
3	0xbf057629	-0.52133423
4	0x36cb54cf	6.0597445e-06
5	0x3e533c11	0.20628382
6	0x3f0aa6a2	0.5416051
7	0xb66ad0f9	-3.4990355e-06

lyapunov.R f4 [2, 4]
0	0x3d7da54a	0.06192521
1	0x3d25b42c	0.04045503
2	0xbd3e7be6	-0.046504878
3	0xbde53160	-0.11191058
4	0xbc857c9c	-0.01629477
5	0xbc458f49	-0.012058088
6	0x3e1a3cc2	0.1506224
7	0xbdcb0879	-0.099137254

lyapunov.net.0.weight f4 [16, 4]
0	0xb8a1d183	-7.716103e-05
1	0x38626db1	5.3984757e-05
2	0xb82d9e08	-4.1393592e-05
3	0x38b7078e	8.727527e-05
4	0x3b9ddd49	0.004817639
5	0x3e9c8fa4	0.3057834
6	0xbe229a9e	-0.15879294
7	0xbe773cf5	-0.24144347
8	0xbe54416e	-0.20728084
9	0x3bd5790c	0.006514674
10	0x3ea2b02a	0.31775028
11	0x3e8b05c5	0.2715284
12	0xbd36de5d	-0.044645656
13	0xbdc78813	-0.09742751
14	0x3bbf82f1	0.005844467
15	0xbdb153ac	-0.08658537
16	0xb7d2c8fe	-2.5127545e-05
17	0x371ad789	9.2292985e-06
18	0xb896a238	-7.182773e-05
19	0x382cc5a2	4.1192056e-05
20	0xb426d22c	-1.5536415e-07
21	0x3291f568	1.699182e-08
22	0x384e4d61	4.9186292e-05
23	0xb780b354	-1.5342295e-05
24	0xbdb56efd	-0.0885906
25	0x3e9496b6	0.29021233
26	0xbe859dcb	-0.2609695
27	0xbe6d5410	-0.23176599
28	0x3deb8924	0.11500767
29	0xbcb7b5ba	-0.022425521
30	0xbb4639ae	-0.0030246782
31	0xbbb05305	-0.0053809904
32	0x3edb806b	0.42871413
33	0x3d652ed4	0.055952862
34	0xbecf35b2	-0.40470654
35	0xbec5808d	-0.3857464
36	0xbeabd83b	-0.33563408
37	0xbe89e34d	-0.2693123
38	0x3dcfbf03	0.101438545
39	0x3cacafcd	0.021079922
40	0x3ad40acb	0.0016177533
41	0xbe786945	-0.24258907
42	0xbe899abc	-0.26875865
43	0xbe1925dd	-0.1495585
44	0xbe3708d3	-0.1787446
45	0x3d135e30	0.035978496
46	0xbc4d2980	-0.012522101
47	0xbe041225	-0.12897547
48	0x3e70cedc	0.2351641
49	0x3d9b2f6f	0.075774066
50	0x3dc506a7	0.096204095
51	0x3d43a5fe	0.047765724
52	0xbdc2dffb	-0.09515377
53	0xbd9ed880	-0.07756138
54	0xbe9e2a04	-0.3089143
55	0xbe32fa5b	-0.17478316
56	0xbdff6b1d	-0.12471602
57	0x3d8a72c6	0.067601725
58	0xbed53b2c	-0.41646707
59	0xbea9d21e	-0.3316812
60	0xbd38e035	-0.045135695
61	0xbe834d04	-0.25644696
62	0x3f04dfef	0.51904196
63	0x3e235ce2	0.159534

lyapunov.net.0.bias f4 [16]
0	0x34437c8e	1.8206103e-07
1	0x3e4a57bc	0.1976003
2	0x3e2adab7	0.16684996
3	0x3ce43d22	0.027861182
4	0x372d076b	1.0313331e-05
5	0x36a202d5	4.828306e-06
6	0xbe349e5f	-0.17638539
7	0xbde5489d	-0.111954905
8	0x3e5e1a13	0.21689634
9	0x3ef4e345	0.47829643
10	0xbe8f9682	-0.28044516
11	0x3ec30567	0.3809006
12	0xbe493468	-0.19648898
13	0xbdf1092c	-0.117693275
14	0x3f032642	0.5123025
15	0xbead4df6	-0.33848542

lyapunov.net.2.weight f4 [16, 16]
0	0xb879d8e8	-5.9568236e-05
1	0xb7de5437	-2.6503678e-05
2	0xb717f039	-9.056233e-06
3	0xb9201703	-0.00015267362
4	0xb8981fee	-7.253872e-05
5	0x3899157e	7.299612e-05
6	0x374ce82a	1.2213402e-05
7	0xb8f9de81	-0.0001191469
8	0x3890b0e7	6.899406e-05
9	0x367e270a	3.7871673e-06
10	0x3900c6ec	0.00012281135
11	0xb86046ed	-5.3471816e-05
12	0xb8a8429c	-8.023271e-05
13	0xb8a780e7	-7.9871905e-05
14	0x3815f2bc	3.5750432e-05
15	0x3911f0aa	0.00013917932
16	0xb953980a	-0.00020179167
17	0x37e82573	2.7673994e-05
18	0xb888413a	-6.497135e-05
19	0x38180140	3.6240788e-05
20	0x36c1e029	5.777944e-06
21	0x39684c99	0.00022153779
22	0x383710ef	4.364637e-05
23	0xb8ba8301	-8.8935725e-05
24	0x379a2ad9	1.8378183e-05
25	0x3887668e	6.456404e-05
26	0x385295e4	5.0207498e-05
27	0xb7e8524f	-2.7694883e-05
28	0xb705ee38	-7.982882e-06
29	0x38661834	5.4858814e-05
30	0x36e80c8d	6.9156e-06
31	0x382fba7a	4.189692e-05
32	0x37a8a029	2.0101741e-05
33	0x386a5fe1	5.587924e-05
34	0xb6af2dc0	-5.2207324e-06
35	0xb92b0b70	-0.00016312092
36	0xb900d995	-0.00012288087
37	0xb84cd559	-4.8836086e-05
38	0x3929587f	0.00016150063
39	0x38073196	3.223269e-05
40	0xb4983066	-2.834742e-07
41	0xb6ef8e71	-7.1393374e-06
42	0xb832884d	-4.2565447e-05
43	0xb735c697	-1.08346785e-05
44	0x37e262d2	2.6987316e-05
45	0x39061056	0.00012785321
46	0x3593aae1	1.1002086e-06
47	0x373e73f9	1.13518845e-05
48	0xb8b42fd2	-8.591976e-05
49	0x3909e41b	0.00013150314
50	0xb8a6ad4c	-7.947776e-05
51	0xb92a9285	-0.00016267046
52	0x38491ead	4.7950703e-05
53	0x393cb6ff	0.00017997249
54	0xb83a8526	-4.446986e-05
55	0x394366c4	0.00018634932
56	0xb80934b0	-3.2712414e-05
57	0x389f286b	7.589239e-05
58	0x3701603e	7.711407e-06
59	0x3924a1ac	0.00015700486
60	0x379dacfc	1.879641e-05
61	0xb8b8a769	-8.804986e-05
62	0x375e6fe5	1.3258284e-05
63	0xb8bc853e	-8.989357e-05
64	0xb8d19297	-9.993201e-05
65	0x39f2c82f	0.00046306985
66	0xb9ddd19d	-0.0004230858
67	0x39d18326	0.000399613
68	0xb9a43b79	-0.00031324828
69	0xb84af2e7	-4.8386773e-05
70	0xbb3a61b8	-0.0028439593
71	0x376a01c5	1.3947899e-05
72	0x3d3c48e9	0.04596797
73	0xbc775d97	-0.015097997
74	0xbb5a6821	-0.0033326226
75	0xba8e147a	-0.0010839843
76	0x3dfba1e4	0.122867376
77	0x3889d2b2	6.571914e-05
78	0xba845f2c	-0.0010099164
79	0x3853118a	5.0322655e-05
80	0xb9949fba	-0.00028347765
81	0xb955c59b	-0.00020386877
82	0x3964126f	0.00021750641
83	0xb93ba509	-0.0001789519
84	0x36d239c5	6.265213e-06
85	0x387e8254	6.0679697e-05
86	0xb93449fc	-0.00017193699
87	0x38a8f0b8	8.0557016e-05
88	0xb970b838	-0.0002295681
89	0xb8827084	-6.219841e-05
90	0xb79aa115	-1.843324e-05
91	0xb8a01fbf	-7.635308e-05
92	0x3917c25f	0.00014472891
93	0x393ba447	0.00017894908
94	0xb6733ac6	-3.6244032e-06
95	0x386a494b	5.5858207e-05
96	0xb7b572e4	-2.1630382e-05
97	0x395e6e21	0.00021212596
98	0x381916a8	3.6499143e-05
99	0xb7d09ba3	-2.4868006e-05
100	0x39953a09	0.00028462734
101	0xb95fcc2e	-0.00021343
102	0xb95b3d00	-0.00020908192
103	0xb84b1a4d	-4.8423466e-05
104	0x39a0eb6b	0.00030692978
105	0x37d47bb6	2.5329977e-05
106	0xb82c9c3b	-4.1153497e-05
107	0xb89ff124	-7.626627e-05
108	0xb92c1ccb	-0.00016413924
109	0x39350a2f	0.00017265299
110	0x39782fed	0.00023668977
111	0xb9005aa8	-0.00012240803
112	0x380ccbad	3.356829e-05
113	0xb7e1b7b4	-2.6907634e-05
114	0xb7a462f1	-1.9596397e-05
115	0xb9029600	-0.00012453645
116	0x39d4bd08	0.0004057663
117	0xb93ab87a	-0.00017807065
118	0xb9c9ae18	-0.00038467417
119	0x39d8e4e1	0.00041369259
120	0xb8d02f42	-9.927015e-05
121	0x38eae4f1	0.00011200633
122	0xb90e8e4c	-0.00013595185
123	0xb8cb9b19	-9.7086835e-05
124	0xb72cf7e9	-1.030972e-05
125	0xb7b6bf16	-2.1785072e-05
126	0x37130914	8.763996e-06
127	0xb701925d	-7.723077e-06
128	0x393cc8d8	0.00018003897
129	0x37e4a833	2.7258042e-05
130	0xb8830678	-6.247772e-05
131	0x39404eb1	0.00018339862
132	0x389dce42	7.524762e-05
133	0x392f62ed	0.00016726153
134	0x3844c3bb	4.691233e-05
135	0x38e16e13	0.00010749339
136	0xb7d9eeee	-2.5979676e-05
137	0x36dbff93	6.5564614e-06
138	0x37fa4042	2.9832245e-05
139	0xb8a787cc	-7.988475e-05
140	0xb6d38efb	-6.304935e-06
141	0xb91e8fae	-0.00015121579
142	0xb7a1707f	-1.924508e-05
143	0x375602a0	1.2756005e-05
144	0x38e762c4	0.00011033335
145	0xbc37cc80	-0.01121819
146	0xbc463332	-0.012097167
147	0x34846ff2	2.4668367e-07
148	0x380e4d91	3.3927678e-05
149	0xb81903f6	-3.648173e-05
150	0x3d170335	0.036868293
151	0x3775ecfa	1.4658313e-05
152	0xb7ddfa63	-2.6461848e-05
153	0xbc827d77	-0.015928967
154	0x36689893	3.4659504e-06
155	0xbc5eceea	-0.013599137
156	0xbdd77a96	-0.10521428
157	0xb707ec7c	-8.101688e-06
158	0xbc4be6b4	-0.012445141
159	0xb8474b6f	-4.751555e-05
160	0xb8548704	-5.0670482e-05
161	0x3e71c644	0.23610789
162	0xbe887522	-0.26651865
163	0x3db1593a	0.08659597
164	0xb7826c13	-1.5547534e-05
165	0xb6c0a98b	-5.7417833e-06
166	0xbe83616e	-0.2566027
167	0xbc8ea3e0	-0.017412126
168	0x3ecfdec9	0.4059966
169	0x3f2305cf	0.6368074
170	0xbe25ebdd	-0.16203256
171	0x3e59d6b8	0.21273315
172	0x3dd08e82	0.10183431
173	0x3e7e575a	0.2483801
174	0x3f1df23c	0.61697745
175	0x3e38e457	0.18055855
176	0xb8fd3d04	-0.00012075345
177	0xbea703df	-0.3262014
178	0xba3f8789	-0.0007306268
179	0xbbb9176a	-0.005648543
180	0x381d90aa	3.7566446e-05
181	0x34660feb	2.142621e-07
182	0xbba2fc7e	-0.004973947
183	0x3d7323d3	0.059360337
184	0x3eb5d7f2	0.35516316
185	0xbea45808	-0.32098413
186	0x3d48accb	0.048992913
187	0xbe4066a3	-0.18789153
188	0x3e3570cd	0.17718811
189	0x3b6cb079	0.0036115928
190	0xbc3ec941	-0.011644662
191	0xbd81978c	-0.063277334
192	0xb8b1be9a	-8.47552e-05
193	0xbb51b9d2	-0.0032001627
194	0x3ad60d6c	0.0016330904
195	0x3d3e4c7c	0.04645966
196	0x38b35bb8	8.552469e-05
197	0x374885a6	1.1952046e-05
198	0x3db8a7af	0.09016358
199	0xbcdbd78d	-0.026836181
200	0xbda3aeef	-0.0799235
201	0xbb0a1065	-0.00210669
202	0xbb48d316	-0.0030643395
203	0x3b07e015	0.0020732929
204	0xbc03d818	-0.008047126
205	0xbd1245b5	-0.03571101
206	0xbdf6bd59	-0.12047834
207	0xbb46532e	-0.0030261981
208	0x38ec3a35	0.00011264199
209	0x3a67b04f	0.0008838223
210	0x36ee316d	7.0987066e-06
211	0x37882cec	1.6233382e-05
212	0xb82883d6	-4.0177103e-05
213	0xb50ae1af	-5.173742e-07
214	0xb70568e9	-7.951844e-06
215	0xb72f4b01	-1.0448276e-05
216	0x398af457	0.00026503459
217	0xb71bf58d	-9.295892e-06
218	0x38107b35	3.444702e-05
219	0x37e4b98c	2.726612e-05
220	0x3ea2b2cf	0.31777045
221	0xb94ddd1e	-0.00019632696
222	0xb7ccbb03	-2.440578e-05
223	0xb71a6315	-9.202185e-06
224	0xb91036c6	-0.00013753315
225	0xb90c23d4	-0.00013364787
226	0xb7583d77	-1.2888914e-05
227	0xb98c500c	-0.0002676252
228	0x38b278f3	8.51023e-05
229	0xb8f592db	-0.00011709864
230	0x371736bb	9.013044e-06
231	0x38ac42c4	8.214035e-05
232	0x37a8748a	2.0081428e-05
233	0xb8a8c662	-8.047816e-05
234	0xb8ac016c	-8.201864e-05
235	0x3835b689	4.3323762e-05
236	0xb93f133a	-0.00018222342
237	0xb747c26b	-1.1906591e-05
238	0x38cc86f0	9.752612e-05
239	0x392c26e7	0.0001641769
240	0x3828b802	4.0225692e-05
241	0x3e825c06	0.25460833
242	0x3a7bbb53	0.00096028036
243	0x3cb54dd8	0.022131845
244	0xb8ce144a	-9.8266246e-05
245	0xb688e071	-4.0792443e-06
246	0xba971d87	-0.0011529186
247	0x3bfa29c0	0.0076343715
248	0xbcce6a40	-0.025197148
249	0xbd1f879b	-0.038947683
250	0xbb0893f5	-0.0020840142
251	0xbe953a4e	-0.29146045
252	0x3ea86567	0.32889864
253	0x38628c09	5.4013017e-05
254	0xbdca0c7a	-0.09865661
255	0x3ec32ead	0.38121548

lyapunov.net.2.bias f4 [16]
0	0x36770a08	3.6811707e-06
1	0x37088271	8.136602e-06
2	0xbbaa7cb3	-0.0052028536
3	0xb8e1936a	-0.00010756294
4	0xbc369f3d	-0.011146364
5	0x3999298f	0.00029213398
6	0x3788a702	1.6290232e-05
7	0xb9324771	-0.00017002017
8	0x380ec537	3.403911e-05
9	0xbc75416f	-0.014969214
10	0x36c81258	5.9626e-06
11	0xbe127bb8	-0.14305007
12	0x3df10b41	0.11769725
13	0xbd9498f4	-0.07255736
14	0x394ebcba	0.00019715997
15	0xbdd70cc6	-0.10500483

lyapunov.net.4.weight f4 [8, 16]
0	0xb5bc9175	-1.4049425e-06
1	0xb7eafc8c	-2.8012575e-05
2	0x38097588	3.2772805e-05
3	0xb98c31d5	-0.0002674001
4	0xb7a69c4c	-1.9861523e-05
5	0xb7cabf14	-2.4169254e-05
6	0x37854707	1.588791e-05
7	0xb9737f40	-0.0002322169
8	0xb87a2611	-5.9640097e-05
9	0xb7c39330	-2.3314351e-05
10	0xb70eb063	-8.504928e-06
11	0xb7737339	-1.4510756e-05
12	0xb7dd068c	-2.6348302e-05
13	0x385544f5	5.084738e-05
14	0xb86d9086	-5.66398e-05
15	0x3780f8ea	1.5374699e-05
16	0xb99fc834	-0.00030476006
17	0x380e9052	3.3989847e-05
18	0xb7ead104	-2.7992304e-05
19	0xb8b25648	-8.5037726e-05
20	0x39551fed	0.00020325156
21	0x38879724	6.465454e-05
22	0x3900b411	0.00012274111
23	0x39509454	0.00019891682
24	0xb8da3b65	-0.00010406113
25	0x37b1a2a1	2.1175774e-05
26	0xb868a492	-5.546638e-05
27	0x388804fc	6.485914e-05
28	0x393a023a	0.00017739172
29	0xb7f97efa	-2.9742241e-05
30	0x37282aa4	1.0023508e-05
31	0x3879845a	5.948949e-05
32	0xb6837f4d	-3.918924e-06
33	0x3678944e	3.7041204e-06
34	0xb62a9920	-2.5421105e-06
35	0x360a23e4	2.0584494e-06
36	0x3cfc9e76	0.030837279
37	0xb8a1c762	-7.714216e-05
38	0xb87d653b	-6.041418e-05
39	0x390ba81d	0.000133187
40	0xb73bf75a	-1.120366e-05
41	0xbafd98c5	-0.0019347897
42	0x3ee03727	0.43792078
43	0xbebbe79e	-0.36700147
44	0xbe06b918	-0.13156545
45	0x3cb848a8	0.022495583
46	0x37ef61f3	2.8536631e-05
47	0x3e72fcbd	0.23729225
48	0x361f01e8	2.3693956e-06
49	0xb833fd2b	-4.2912707e-05
50	0xb9097db2	-0.00013112163
51	0xb92226be	-0.00015463957
52	0x392b6a68	0.0001634747
53	0xb9083e55	-0.00012993191
54	0xb7934b44	-1.7558814e-05
55	0xb86b8a0d	-5.6156936e-05
56	0x3868ffd2	5.555136e-05
57	0x396662e3	0.00021971347
58	0x384b5fae	4.848808e-05
59	0x394e2e2b	0.0001966289
60	0x36bb10b0	5.574977e-06
61	0x38f14e9e	0.00011506419
62	0x3691ed6a	4.3489754e-06
63	0xb8aecd6b	-8.3352286e-05
64	0xb78d0c0e	-1.6814123e-05
65	0x36940155	4.410899e-06
66	0xb7834e73	-1.5652948e-05
67	0xb910775b	-0.00013777374
68	0x360cd2dd	2.0984364e-06
69	0x392a218e	0.00016224963
70	0xb8840c9e	-6.2966006e-05
71	0x390d9442	0.00013502038
72	0xb75c1288	-1.31173365e-05
73	0x363efd1d	2.8459538e-06
74	0x3c222882	0.009897353
75	0x363ebafd	2.8421048e-06
76	0x3799591a	1.8280512e-05
77	0x36163820	2.238441e-06
78	0xb908d387	-0.00013048771
79	0x374943bf	1.1996307e-05
80	0x37b15a59	2.1142116e-05
81	0xb84346ce	-4.6557565e-05
82	0x39437101	0.00018638746
83	0x39b14792	0.00033813395
84	0xb7b561ec	-2.162248e-05
85	0xb806b580	-3.2117125e-05
86	0xb8677dd0	-5.5191864e-05
87	0xb9345789	-0.00017198747
88	0xb886ab1e	-6.421491e-05
89	0x388d86be	6.7485016e-05
90	0x360dd5d0	2.1135093e-06
91	0x37eaa0ec	2.7969909e-05
92	0x35dd2298	1.6475851e-06
93	0x38d1002d	9.965929e-05
94	0x3910cbb4	0.00013808795
95	0x38cb4f72	9.694592e-05
96	0x370d7a38	8.432711e-06
97	0x37859d6f	1.5928146e-05
98	0xb652aafe	-3.139197e-06
99	0xb83944a5	-4.4171367e-05
100	0x38371fc0	4.366017e-05
101	0xb9095923	-0.00013098544
102	0xb873a5c0	-5.809008e-05
103	0x3968d69b	0.00022205191
104	0xb82200f6	-3.8624705e-05
105	0xba224f55	-0.0006191631
106	0x3cbd62a4	0.023118325
107	0xbe8f576c	-0.27996385
108	0xb5957e67	-1.1138153e-06
109	0xb8d5f1da	-0.0001020168
110	0x389b038e	7.391638e-05
111	0xb787e5e9	-1.6200314e-05
112	0xb8dc08a9	-0.000104920306
113	0xb84f9723	-4.9493403e-05
114	0x3846fceb	4.7442427e-05
115	0x373cc14f	1.1250681e-05
116	0xb90d4dd7	-0.00013475805
117	0x3875f001	5.8636073e-05
118	0x388329fe	6.2543884e-05
119	0xb708d238	-8.155177e-06
120	0x38148abf	3.5415167e-05
121	0xb7d9412c	-2.5898764e-05
122	0x39a3d793	0.00031250398
123	0x38c8f3d3	9.582159e-05
124	0x3834c653	4.3100048e-05
125	0x3911d656	0.00013908124
126	0x3927e63f	0.00016012134
127	0xb9387c8b	-0.00017594003

lyapunov.net.4.bias f4 [8]
0	0xb91bdd81	-0.00014864469
1	0x38ab2ce3	8.162276e-05
2	0x394ad807	0.00019344698
3	0x37f4f982	2.9203253e-05
4	0x39951599	0.00028435586
5	0xb72a8d47	-1.0165683e-05
6	0xbd09e5c0	-0.033666372
7	0x3702e587	7.802045e-06

lyapunov.net.6.weight f4 [1, 8]
0	0x37db95b7	2.617655e-05
1	0xb6ea052d	-6.974346e-06
2	0xbe1b7360	-0.15180731
3	0x3684cfe1	3.958107e-06
4	0x3a4c4b02	0.00077931595
5	0xb63fbcbc	-2.8571076e-06
6	0x3d0aece5	0.033917326
7	0xb792737d	-1.7458335e-05

lower_limit f4 [4]
0	0xc0490fdb	-3.1415927
1	0xc0490fdb	-3.1415927
2	0xbf490fdb	-0.7853982
3	0xbf490fdb	-0.7853982

upper_limit f4 [4]
0	0x40490fdb	3.1415927
1	0x40490fdb	3.1415927
2	0x3f490fdb	0.7853982
3	0x3f490fdb	0.7853982
