models/pendulum_output_feedback.pth (torch, 138590 bytes, 14 tensors)

observer.fc_net.0.weight f4 [8, 3]
5.968177e-07 -4.0207544e-07 1.3043317e-06 0.030595575 0.005858486 0.77480257 -7.462839e-07 1.0609009e-06
-4.514907e-07 -6.6247975e-07 -1.0225693e-06 6.0252e-07 0.008139596 -0.00078924 0.2934497 5.3845342e-05
-1.3498711e-05 -0.04376882 -4.0164443e-07 -3.781377e-07 2.5766167e-07 -1.0242255e-06 -1.0630052e-06 -1.7505192e-06
00000000: 0035 2035 d4dc d7b4 7f10 af35 92a3 fa3c
00000010: 8bf8 bf3b 7659 463f 3d54 48b5 4764 8e35
00000020: 6964 f2b4 43d5 31b5 373f 89b5 dcbc 2135
00000030: f15b 053c 00e5 4eba 0a3f 963e ffd7 6138
00000040: 8678 62b7 ef46 33bd 97a1 d7b4 da02 cbb4
00000050: c054 8a34 1f78 89b5 95ac 8eb5 62f3 eab5

observer.fc_net.0.bias f4 [8]
3.930764e-07 0.22711036 -3.9457268e-07 -1.7952837e-06 0.11491439 3.591663e-05 -3.83597e-07 -1.0191065e-06
00000000: 0208 d334 9e8f 683e a8d5 d3b4 7af5 f0b5
00000010: 3c58 eb3d 30a5 1638 2cf1 cdb4 3cc8 88b5

observer.fc_net.2.weight f4 [2, 8]
-1.323341e-06 1.089536 -4.9417616e-07 7.545843e-07 0.54373455 -0.009437752 -1.3461646e-06 1.3197669e-06
3.732708e-07 0.17303595 -4.7412615e-07 8.8710195e-09 -0.008845033 -1.0678658e-06 1.2084091e-06 1.2864243e-06
00000000: a79d b1b5 ea75 8b3f 87a7 04b5 a38e 4a35
00000010: 3032 0b3f cda0 1abc ddad b4b5 d822 b135
00000020: f365 c834 5630 313e 678b feb4 2867 1832
00000030: c2ea 10bc 9753 8fb5 9f30 a235 34a9 ac35

observer.fc_net.2.bias f4 [2]
-1.3697257e-06 -1.1747229e-06
00000000: 6bd7 b7b5 2cab 9db5

controller.net.0.weight f4 [8, 3]
-0.60005456 -0.09914187 -0.46096167 0.4379835 0.5475233 0.4561588 8.083911e-05 -0.25723273
5.5338674e-05 0.3169312 0.6293901 0.2016894 0.48664886 0.3171835 -7.477675e-05 -6.909304e-07
-8.956371e-07 2.138204e-09 0.1983757 0.67661196 -7.618767e-05 0.29667744 7.8085955e-05 -7.263826e-05
00000000: 2d9d 19bf e50a cbbd 2b03 ecbe 603f e03e
00000010: 7d2a 0c3f a58d e93e 2b88 a938 02b4 83be
00000020: 731b 6838 ce44 a23e b61f 213f ab87 4e3e
00000030: 0a2a f93e e065 a23e 76d1 9cb8 6078 39b5
00000040: b66b 70b5 afef 1231 0023 4b3e 7136 2d3f
00000050: f2c6 9fb8 1be6 973e 14c2 a338 5e55 98b8

controller.net.0.bias f4 [8]
0.2285353 0.18983726 7.92878e-05 0.4043927 0.18456435 -8.901162e-07 0.26160765 0.0089023225
00000000: 2805 6a3e b364 423e 5047 a638 8f0c cf3e
00000010: 70fe 3c3e 52f0 6eb5 70f1 853e 0cdb 113c

controller.net.2.weight f4 [8, 8]
7.831015e-05 0.17294037 -0.163375 0.552914 0.18838385 -3.9070406e-07 0.35274646 0.3302376
-0.002165573 0.2674381 -0.03443475 0.4273678 0.5345477 1.6098477e-07 0.3822191 0.016192868
-0.072551794 0.26870796 0.019255966 0.53267986 0.038204852 -3.5940207e-07 0.28035954 0.1765113
0.14278062 -0.19218329 -3.1330538e-07 3.3858566e-07 -5.385623e-07 5.362905e-07 -0.14832701 9.404563e-07
3.7922305e-07 4.4997802e-07 1.9842291e-07 9.28968e-07 6.6294994e-08 3.1377672e-07 2.3711279e-07 -3.3193714e-07
5.3276204e-07 2.58042e-07 5.5297437e-07 -2.2342717e-09 -9.684935e-07 2.1198188e-07 -1.9402465e-07 1.4519843e-07
0.0030095866 0.13660108 -0.013649933 0.58884233 0.48883304 5.7988035e-07 0.29711974 0.19934526
0.26739737 -0.439018 0.39956096 -0.0052689393 -0.05692746 -2.623089e-07 -0.13848916 0.18303512
00000000: 713a a438 4817 313e c74b 27be c68b 0d3f
00000010: b2e7 403e f5c1 d1b4 2f9b b43e e714 a93e
00000020: 49ec 0dbb a6ed 883e 740b 0dbd f4cf da3e
00000030: 1ed8 083f 28db 2c34 39b2 c33e e8a6 843c
00000040: 0996 94bd 1794 893e b0be 9d3c b55d 083f
00000050: b17c 1c3d d8f3 c0b4 498b 8f3e 61bf 343e
00000060: 1535 123e b2cb 44be 5d34 a8b4 dcc6 b534
00000070: b891 10b5 9af5 0f35 09e3 17be aa73 7c35
00000080: 0598 cb34 8294 f134 130e 5534 325e 7935
00000090: 0f5e 8e33 2575 a834 1199 7e34 1835 b2b4
000000a0: 2103 0f35 0689 8a34 1c70 1435 b989 19b1
000000b0: 2ffd 81b5 239d 6334 1755 50b4 d7e7 1b34
000000c0: 7c3c 453b 27e1 0b3e f8a3 5fbc 5fbe 163f
000000d0: 5348 fa3e 13a9 1b35 1420 983e 2a21 4c3e
000000e0: 4fe8 883e f8c6 e0be 4193 cc3e 11a7 acbb
000000f0: c52c 69bd 76d3 8cb4 1ad0 0dbe 8f6d 3b3e

controller.net.2.bias f4 [8]
-5.653938e-07 -6.85884e-07 3.0934095e-07 -3.1288974e-07 -1.7272433e-07 -2.416861e-07 5.918644e-05 0.1429395
00000000: 91c5 17b5 971d 38b5 7f13 a634 3dfb a7b4
00000010: 1a76 39b4 16c1 81b4 f53e 7838 bb5e 123e

controller.net.4.weight f4 [8, 8]
0.32100523 0.33257234 0.22606318 -0.33784786 8.2111256e-07 -5.6407066e-07 0.14786635 -0.03988269
-4.1272062e-07 1.9008921e-07 2.4116383e-07 6.081804e-07 -1.9963578e-07 -3.126901e-07 -7.2822604e-07 -9.4654916e-07
0.057340752 0.5150817 0.30743954 -3.1254254e-07 4.804752e-07 9.709571e-07 0.14881492 -0.435563
0.31717902 0.32950076 0.46766087 -0.3093345 -1.565283e-07 -4.690985e-07 0.4773555 -0.5152753
-0.32451743 -0.12895161 -3.13759e-07 -3.1320192e-07 -3.129575e-07 -5.363237e-07 0.19281258 1.0451919e-07
-7.772043e-05 -7.8310586e-05 -7.82718e-05 0.10919753 -5.2517373e-07 -4.1469244e-07 -0.0040450576 0.38848278
-0.30637658 -0.032852292 0.15956587 0.3613001 2.1187161e-07 -2.792702e-07 -2.1152924e-07 0.35545385
-5.931279e-07 9.1083547e-07 5.929712e-07 3.1300797e-07 -7.150259e-07 6.8952653e-07 -2.556082e-07 -7.050573e-07
00000000: cc5a a43e ec46 aa3e 1b7d 673e 65fa acbe
00000010: 6d6a 5c35 a46a 17b5 476a 173e 085c 23bd
00000020: e493 ddb4 531b 4c34 4e79 8134 d741 2335
00000030: 775b 56b4 cddf a7b4 507b 43b5 5d16 7eb5
00000040: 23de 6a3d 65dc 033f b768 9d3e 85cb a7b4
00000050: 01fa 0035 d551 8235 f062 183e 1d02 dfbe
00000060: 4a65 a23e 53b4 a83e 3f71 ef3e 1761 9ebe
00000070: 2c12 28b4 68d8 fbb4 f167 f43e 15e9 03bf
00000080: 2627 a6be e40b 04be b572 a8b4 2526 a8b4
00000090: 8d04 a8b4 e2f7 0fb5 a970 453e 0874 e033
000000a0: d7fd a2b8 ad3a a4b8 da25 a4b8 f4a2 df3d
000000b0: aaf9 0cb5 e5a2 deb4 678c 84bb 37e7 c63e
000000c0: 64dd 9cbe 2090 06bd 3c65 233e 54fc b83e
000000d0: d37e 6334 9bee 95b4 b720 63b4 0cfe b53e
000000e0: 7037 1fb5 2380 7435 ac2c 1f35 7d0b a834
000000f0: 35f0 3fb5 e717 3935 863a 89b4 2b43 3db5

controller.net.4.bias f4 [8]
-2.787759e-07 -5.3545796e-07 -2.3419387e-08 1.6466406e-07 0.022181798 -7.839631e-05 0.030266672 5.658917e-07
00000000: abaa 95b4 64bc 0fb5 c72b c9b2 83ce 3034
00000010: 9ab6 b53c b368 a4b8 d0f1 f73c c8e7 1735

controller.net.6.weight f4 [1, 8]
-0.57675254 1.02375616e-07 -0.48969892 -0.52392155 0.14708635 0.20262393 0.53912294 2.6096262e-07
00000000: 0ea6 13bf 97d9 db33 d1b9 fabe b91f 06bf
00000010: ce9d 163e a67c 4f3e f603 0a3f 6e1a 8c34

lower_limit f4 [4]
-2.1991148 -2.1991148 -0.5497787 -0.5497787
00000000: 4cbe 0cc0 4cbe 0cc0 4cbe 0cbf 4cbe 0cbf

upper_limit f4 [4]
2.1991148 2.1991148 0.5497787 0.5497787
00000000: 4cbe 0c40 4cbe 0c40 4cbe 0c3f 4cbe 0c3f

x_boundary f4 [8192, 4]
2.1991148 -0.77094656 -0.0068251747 0.003269507 -2.1991148 0.77078193 0.0063584475 -0.0032778708
-2.1991148 0.7677282 0.0065389015 -0.0031045363 -2.1991148 0.7729857 0.00642397 -0.0030888736
-2.1991148 0.7725412 0.006360244 -0.0025758462 2.1991148 -0.77153134 -0.007842626 0.0032193887
2.1991148 -0.76883066 -0.005804789 0.003760078 2.1991148 -0.7671942 -0.0064205206 0.004048524
-2.1991148 0.77021444 0.007470407 -0.004372504 2.1991148 -0.7742371 -0.0073432513 0.0024177495
2.1991148 -0.7738675 -0.0068363925 0.0042525693 -2.1991148 0.7732988 0.0061613014 -0.0020912339
2.1991148 -0.7741077 -0.0069445847 0.0020262736 2.1991148 -0.76731807 -0.007101706 0.0044946526
2.1991148 -0.76988524 -0.0075812316 0.0045919 -2.1991148 0.776385 0.0069042416 -0.0030006208
2.1991148 -0.77121633 -0.006490692 0.0048102923 2.1991148 -0.77397984 -0.0073669795 0.004455049
2.1991148 -0.77162373 -0.008412185 0.0027551015 -2.1991148 0.771032 0.008505863 -0.0031050816
2.1991148 -0.7719415 -0.005051796 0.00267018 -2.1991148 0.77037513 0.005035921 -0.002538297
-2.1991148 0.7774284 0.0070084413 -0.0029510856 -2.1991148 0.7739092 0.008349725 -0.0037626864
2.1991148 -0.7720762 -0.005319975 0.0020729953 2.1991148 -0.7753396 -0.007574096 0.0019955018
-2.1991148 0.76774293 0.008506497 -0.003860039 2.1991148 -0.7702101 -0.007999399 0.0047684126
2.1991148 -0.7743356 -0.006764686 0.0014878495 2.1991148 -0.7700852 -0.0078387745 0.0014230115
-2.1991148 0.77209246 0.0052312226 -0.001872083 2.1991148 -0.7737827 -0.007990296 0.0047460794
-2.1991148 0.7630525 0.0070755905 -0.004218268 2.1991148 -0.76484007 -0.008339964 0.0027440987
-2.1991148 0.7750125 0.0073228083 -0.001411271 2.1991148 -0.770491 -0.008295437 0.004859132
2.1991148 -0.76827973 -0.008048938 0.0014342989 -2.1991148 0.7748564 0.005170157 -0.0042458363
-2.1991148 0.77370095 0.008306565 -0.0017560221 2.1991148 -0.76581633 -0.0063648573 0.005096388
-2.1991148 0.7643779 0.008436761 -0.0029949737 -2.1991148 0.7740225 0.004657423 -0.003123527
2.1991148 -0.7673981 -0.0058871484 0.0011448483 2.1991148 -0.7753108 -0.0056500165 0.001550436
2.1991148 -0.76284933 -0.005512332 0.0035916106 -2.1991148 0.76837784 0.0073013897 -0.005500202
2.1991148 -0.76503867 -0.0052840435 0.0044774893 -2.1991148 0.7749624 0.004687329 -0.0033780357
-2.1991148 0.77228594 0.009156591 -0.0028347585 2.1991148 -0.772986 -0.0067727286 0.0008374859
-2.1991148 0.7694441 0.0083188545 -0.0051091723 2.1991148 -0.7764558 -0.00502003 0.0037218616
-2.1991148 0.7766316 0.00700575 -0.0050027957 2.1991148 -0.7634633 -0.005204591 0.0038164805
2.1991148 -0.7757543 -0.0047000125 0.0032364444 2.1991148 -0.7679127 -0.004556875 0.0042473907
-2.1991148 0.7617266 0.00660614 -0.0021575226 2.1991148 -0.7727878 -0.004356705 0.0036172888
2.1991148 -0.77811265 -0.005315842 0.0029512364 -2.1991148 0.7642707 0.0058977418 -0.0014355668
-2.1991148 0.773469 0.00850523 -0.0049305353 2.1991148 -0.76142925 -0.0063498504 0.0021398838
-2.1991148 0.7769232 0.0057188245 -0.0014509007 2.1991148 -0.7667072 -0.005005103 0.00146685
00000000: 4cbe 0c40 c15c 45bf b7a5 dfbb 3a45 563b
00000010: 4cbe 0cc0 f751 453f 865a d03b 8cd1 56bb
00000020: 4cbe 0cc0 d689 443f 4844 d63b 7a75 4bbb
00000030: 4cbe 0cc0 64e2 453f 2b80 d23b b36e 4abb
00000040: 4cbe 0cc0 43c5 453f 9869 d03b 87cf 28bb
00000050: 4cbe 0c40 1483 45bf 5c7e 00bc 61fc 523b
00000060: 4cbe 0c40 16d2 44bf 1936 bebb a46b 763b
00000070: 4cbe 0c40 d766 44bf 3b63 d2bb 7ba9 843b
00000080: 4cbe 0cc0 c62c 453f 51ca f43b 3947 8fbb
00000090: 4cbe 0c40 6734 46bf a89f f0bb 1b73 1e3b
000000a0: 4cbe 0c40 2e1c 46bf d103 e0bb 2359 8b3b
000000b0: 4cbe 0cc0 e9f6 453f bee4 c93b 150d 09bb
000000c0: 4cbe 0c40 ec2b 46bf 668f e3bb 3bcb 043b
000000d0: 4cbe 0c40 f56e 44bf 6eb5 e8bb e147 933b
000000e0: 4cbe 0c40 3317 45bf fb6b f8bb a677 963b
000000f0: 4cbe 0cc0 2bc1 463f fa3c e23b 10a6 44bb
00000100: 4cbe 0c40 6f6e 45bf dfaf d4bb a89f 9d3b
00000110: 4cbe 0c40 8b23 46bf b466 f1bb a9fb 913b
00000120: 4cbe 0c40 2289 45bf 43d3 09bc ef8e 343b
00000130: 4cbe 0cc0 5a62 453f 2d5c 0b3c a07e 4bbb
00000140: 4cbe 0c40 f59d 45bf 8989 a5bb 30fe 2e3b
00000150: 4cbe 0cc0 4e37 453f 5e04 a53b 8f59 26bb
00000160: 4cbe 0cc0 8c05 473f 11a7 e53b 0067 41bb
00000170: 4cbe 0cc0 ea1e 463f 49cd 083c 6797 76bb
00000180: 4cbe 0c40 c9a6 45bf 2f53 aebb 17db 073b
00000190: 4cbe 0c40 a87c 46bf 1f30 f8bb f7c6 023b
000001a0: 4cbe 0cc0 cd8a 443f d65e 0b3c b5f8 7cbb
000001b0: 4cbe 0c40 7d2c 45bf e90f 03bc 5840 9c3b
000001c0: 4cbe 0c40 dc3a 46bf 4daa ddbb f203 c33a
000001d0: 4cbe 0c40 4e24 45bf 346e 00bc 5884 ba3a
000001e0: 4cbe 0cc0 daa7 453f ad6a ab3b af60 f5ba
000001f0: 4cbe 0c40 9f16 46bf bbe9 02bc 0085 9b3b
00000200: 4cbe 0cc0 6957 433f 5bda e73b 6639 8abb
00000210: 4cbe 0c40 8fcc 43bf 58a4 08bc 56d6 333b
00000220: 4cbe 0cc0 3867 463f 2bf4 ef3b 66fa b8ba
00000230: 4cbe 0c40 e63e 45bf 96e9 07bc 5b39 9f3b
00000240: 4cbe 0c40 fbad 44bf b1df 03bc 16ff bb3a
00000250: 4cbe 0cc0 fd5c 463f 6c6a a93b a820 8bbb
00000260: 4cbe 0cc0 4411 463f 4218 083c 532a e6ba
00000270: 4cbe 0c40 8a0c 44bf 4b90 d0bb 9aff a63b
00000280: 4cbe 0cc0 45ae 433f 573a 0a3c 5247 44bb
00000290: 4cbe 0cc0 5726 463f 4c9d 983b 16b4 4cbb
000002a0: 4cbe 0c40 3474 44bf fbe8 c0bb bc0e 963a
000002b0: 4cbe 0c40 c57a 46bf c623 b9bb 0038 cb3a
000002c0: 4cbe 0c40 184a 43bf cba0 b4bb 3a61 6b3b
000002d0: 4cbe 0cc0 69b4 443f 7f40 ef3b 0a3b b4bb
000002e0: 4cbe 0c40 93d9 43bf c525 adbb e7b7 923b
000002f0: 4cbe 0cc0 f063 463f 2a98 993b 0962 5dbb
00000300: 4cbe 0cc0 88b4 453f 8705 163c 5bc7 39bb
00000310: 4cbe 0c40 69e2 45bf c4ed ddbb ba8a 5b3a
00000320: 4cbe 0cc0 4afa 443f ce4b 083c d86a a7bb
00000330: 4cbe 0c40 cfc5 46bf 107f a4bb 7aea 733b
00000340: 4cbe 0cc0 54d1 463f 7e90 e53b 7eee a3bb
00000350: 4cbe 0c40 5572 43bf 468b aabb eb1d 7a3b
00000360: 4cbe 0c40 d597 46bf 9002 9abb 871a 543b
00000370: 4cbe 0c40 ed95 44bf d751 95bb b22d 8b3b
00000380: 4cbe 0cc0 8400 433f 5278 d83b 3965 0dbb
00000390: 4cbe 0c40 6cd5 45bf b1c2 8ebb 0910 6d3b
000003a0: 4cbe 0c40 6432 47bf 8430 aebb 8869 413b
000003b0: 4cbe 0cc0 3fa7 433f d841 c13b a129 bcba
000003c0: 4cbe 0cc0 1002 463f 8559 0b3c 5490 a1bb
000003d0: 4cbe 0c40 07ed 42bf 6812 d0bb 4b3d 0c3b
000003e0: 4cbe 0cc0 70e4 463f fa64 bb3b 262c beba
000003f0: 4cbe 0c40 ec46 44bf d901 a4bb 5243 c03a
