models/pvtol_state_feedback.pth (torch, 3091 bytes, 6 tensors)

controller.net.0.weight f4 [8, 6]
-0.04032813 -0.43630874 0.7143274 -0.15294354 -1.5535328 0.33363447 -0.11855384 0.06809381
1.4349766 -0.26843107 0.19955213 0.4894051 -0.052752674 -0.4621624 0.24175419 -0.05112385
-1.7763638 0.11809796 -0.12922563 0.08310354 0.7686846 -0.09844858 0.672711 0.18071555
0.16908243 0.043052297 -1.3357171 0.29201382 0.250807 -0.5525622 -0.094438836 -0.034929216
0.27023584 5.5200908e-05 -0.3802555 0.04064023 -0.096786544 -0.051762428 0.6874658 -0.03858878
-0.37213206 -0.07023048 -3.9754792e-05 0.3183747 -0.33205804 -5.676021e-05 1.656232 -0.060234927
00000000: 1c2f 25bd dc63 dfbe 29de 363f 3b9d 1cbe
00000010: 2ada c6bf 23d2 aa3e 5bcc f2bd c474 8b3d
00000020: 50ad b73f cc6f 89be 6557 4c3e 4e93 fa3e
00000030: 3013 58bd 8da0 ecbe 698e 773e 3e67 51bd
00000040: e45f e3bf 58dd f13d b953 04be 3032 aa3d
00000050: 84c8 443f 699f c9bd ca36 2c3f 7f0d 393e
00000060: f223 2d3e 9b57 303d c7f8 aabf d682 953e
00000070: c669 803e b774 0dbf 2669 c1bd f011 0fbd
00000080: 5a5c 8a3e 8687 6738 d9b0 c2be 5f76 263d
00000090: 0638 c6bd d704 54bd c2fd 2f3f 450f 1ebd
000000a0: 1888 bebe ffd4 8fbd 62be 26b8 0202 a33e
000000b0: 8303 aabe d011 6eb8 69ff d33f e6b8 76bd

controller.net.0.bias f4 [8]
0.4229417 2.0109448 0.57180303 1.316991 1.9913603 -0.9255624 0.9007429 -0.55827326
00000000: d18b d83e 52b3 0040 af61 123f 2993 a83f
00000010: e5e4 fe3f a8f1 6cbf 1697 663f ffea 0ebf

controller.net.2.weight f4 [2, 8]
0.20839745 -1.4878991 0.38666445 -0.8975567 0.9974142 -5.798584e-05 -0.16966937 -0.279519
0.25618738 1.0041151 0.48744842 0.10563433 -1.3889929 0.24339044 0.6735458 -0.4177505
00000000: 2466 553e 7a73 bebf e2f8 c53e 47c6 65bf
00000010: 8956 7f3f d235 73b8 cfbd 2dbe 1d1d 8fbe
00000020: fe2a 833e d886 803f d792 f93e d056 d83d
00000030: 85ca b1bf 583b 793e 7f6d 2c3f 65e3 d5be

controller.net.2.bias f4 [2]
-5.2906e-05 -3.7905917e-05
00000000: 63e7 5db8 2bfd 1eb8

lower_limit f4 [6]
-1.0 -1.0 -1.0 -1.0 -1.0 -1.0
00000000: 0000 80bf 0000 80bf 0000 80bf 0000 80bf
00000010: 0000 80bf 0000 80bf

upper_limit f4 [6]
1.0 1.0 1.0 1.0 1.0 1.0
00000000: 0000 803f 0000 803f 0000 803f 0000 803f
00000010: 0000 803f 0000 803f
